src/models/mnv2/mobilenetv1_wino5.tflite (tflite, 666776 bytes, 15 tensors)

model/dense/MatMul i1 [10, 768] scale=0.0025198413 zero_point=0
000000 d6 0a fa fb ff 08 f4 e4 21 ec 15 0b e0 16 f7 08
       -0.10583334 0.025198413 -0.015119048 -0.0125992065 -0.0025198413 0.02015873 -0.030238096 -0.07055555 0.08315476 -0.050396826 0.05291667 0.027718253 -0.08063492 0.055436507 -0.022678573 0.02015873
000010 2d 08 1a e3 fd 2a 18 14 fb ff 14 2c dc ee 04 2d
       0.11339286 0.02015873 0.065515876 -0.0730754 -0.007559524 0.10583334 0.06047619 0.050396826 -0.0125992065 -0.0025198413 0.050396826 0.110873014 -0.09071429 -0.045357145 0.010079365 0.11339286
000020 f5 bd 23 23 dc 13 20 0d e4 fc 10 18 e5 0a e7 1a
       -0.027718253 -0.16882937 0.088194445 0.088194445 -0.09071429 0.047876984 0.08063492 0.032757938 -0.07055555 -0.010079365 0.04031746 0.06047619 -0.068035714 0.025198413 -0.06299603 0.065515876
000030 d1 f9 0d 22 e9 14 1d 13 04 2e 39 f5 0d fe f0 22
       -0.118432544 -0.017638888 0.032757938 0.085674606 -0.05795635 0.050396826 0.0730754 0.047876984 0.010079365 0.1159127 0.14363095 -0.027718253 0.032757938 -0.0050396826 -0.04031746 0.085674606
000040 ec c4 2f 14 0a ce f4 22 20 07 16 27 d0 02 24 f9
       -0.050396826 -0.15119047 0.118432544 0.050396826 0.025198413 -0.12599206 -0.030238096 0.085674606 0.08063492 0.017638888 0.055436507 0.09827381 -0.12095238 0.0050396826 0.09071429 -0.017638888
000050 1c e1 0b cb ea df ea 1a f6 e9 f9 0b e5 e8 0a 1e
       0.07055555 -0.07811508 0.027718253 -0.13355158 -0.055436507 -0.08315476 -0.055436507 0.065515876 -0.025198413 -0.05795635 -0.017638888 0.027718253 -0.068035714 -0.06047619 0.025198413 0.07559524
000060 10 3c e5 fe ca 15 cb 28 c8 fd 10 1c 1e fb 02 fd
       0.04031746 0.15119047 -0.068035714 -0.0050396826 -0.13607143 0.05291667 -0.13355158 0.10079365 -0.1411111 -0.007559524 0.04031746 0.07055555 0.07559524 -0.0125992065 0.0050396826 -0.007559524
000070 16 c2 d0 29 2a 15 0d c6 15 15 18 06 1f 19 24 e3
       0.055436507 -0.15623017 -0.12095238 0.10331349 0.10583334 0.05291667 0.032757938 -0.1461508 0.05291667 0.05291667 0.06047619 0.015119048 0.07811508 0.06299603 0.09071429 -0.0730754
000080 24 e8 42 c6 c5 2c e0 24 e3 ff 15 f5 27 09 ef c8
       0.09071429 -0.06047619 0.16630952 -0.1461508 -0.14867064 0.110873014 -0.08063492 0.09071429 -0.0730754 -0.0025198413 0.05291667 -0.027718253 0.09827381 0.022678573 -0.042837303 -0.1411111
000090 11 f0 16 08 1c f6 fa 2a ec 14 1a f7 09 19 1e 1a
       0.042837303 -0.04031746 0.055436507 0.02015873 0.07055555 -0.025198413 -0.015119048 0.10583334 -0.050396826 0.050396826 0.065515876 -0.022678573 0.022678573 0.06299603 0.07559524 0.065515876
0000a0 eb 03 e9 fd 22 21 00 fd e0 25 05 f5 fe 0e ea 25
       -0.05291667 0.007559524 -0.05795635 -0.007559524 0.085674606 0.08315476 0.0 -0.007559524 -0.08063492 0.09323413 0.0125992065 -0.027718253 -0.0050396826 0.035277776 -0.055436507 0.09323413
0000b0 ef c5 0f 20 14 f6 1b d9 e2 fc 03 d4 28 3c 34 ea
       -0.042837303 -0.14867064 0.03779762 0.08063492 0.050396826 -0.025198413 0.068035714 -0.09827381 -0.07559524 -0.010079365 0.007559524 -0.110873014 0.10079365 0.15119047 0.13103175 -0.055436507
0000c0 fa e9 18 da e1 05 ef 19 10 ea c3 ea eb 00 e1 1a
       -0.015119048 -0.05795635 0.06047619 -0.09575397 -0.07811508 0.0125992065 -0.042837303 0.06299603 0.04031746 -0.055436507 -0.15371032 -0.055436507 -0.05291667 0.0 -0.07811508 0.065515876
0000d0 18 df e4 f1 ed df 1c 00 fd e6 ef 0f 20 f0 16 fa
       0.06047619 -0.08315476 -0.07055555 -0.03779762 -0.047876984 -0.08315476 0.07055555 0.0 -0.007559524 -0.065515876 -0.042837303 0.03779762 0.08063492 -0.04031746 0.055436507 -0.015119048
0000e0 26 1a 3a 35 26 20 dc ef e6 e8 04 e6 df d4 1b 15
       0.09575397 0.065515876 0.1461508 0.13355158 0.09575397 0.08063492 -0.09071429 -0.042837303 -0.065515876 -0.06047619 0.010079365 -0.065515876 -0.08315476 -0.110873014 0.068035714 0.05291667
0000f0 ef 25 ea 0d e2 f4 d4 da 1b 03 e8 20 fe 18 fa 26
       -0.042837303 0.09323413 -0.055436507 0.032757938 -0.07559524 -0.030238096 -0.110873014 -0.09575397 0.068035714 0.007559524 -0.06047619 0.08063492 -0.0050396826 0.06047619 -0.015119048 0.09575397

model/conv2d_6/Conv2D1 i1 [768, 1, 1, 512]
000000 d3 ee 64 40 08 39 6a f2 2b 3c 0a 31 05 19 a4 e9
       -45 -18 100 64 8 57 106 -14 43 60 10 49 5 25 -92 -23
000010 27 40 14 18 e1 08 df 25 f0 d5 fe f5 00 04 d4 e1
       39 64 20 24 -31 8 -33 37 -16 -43 -2 -11 0 4 -44 -31
000020 f8 d5 d2 ea 02 fe 95 c4 1d fb 18 06 27 25 81 37
       -8 -43 -46 -22 2 -2 -107 -60 29 -5 24 6 39 37 -127 55
000030 ad ed 3e 3c e1 2b 94 1e 9f 07 fe 28 92 12 a9 10
       -83 -19 62 60 -31 43 -108 30 -97 7 -2 40 -110 18 -87 16
000040 d7 26 e4 d6 22 20 25 0b f4 7f 19 1e 57 dc d6 e5
       -41 38 -28 -42 34 32 37 11 -12 127 25 30 87 -36 -42 -27
000050 55 df e2 0d 03 40 ff 12 19 0f ff 05 d7 bc ee fc
       85 -33 -30 13 3 64 -1 18 25 15 -1 5 -41 -68 -18 -4
000060 e0 8e 47 03 f2 20 f6 97 e6 dd af 18 d3 25 eb f5
       -32 -114 71 3 -14 32 -10 -105 -26 -35 -81 24 -45 37 -21 -11
000070 0d ec 4d 21 e5 c5 24 fb 26 cc 07 14 32 f3 27 4b
       13 -20 77 33 -27 -59 36 -5 38 -52 7 20 50 -13 39 75
000080 f8 dc d3 22 cd 1f 02 1d 1b e6 44 f7 00 07 dd 25
       -8 -36 -45 34 -51 31 2 29 27 -26 68 -9 0 7 -35 37
000090 0b f7 20 c1 2c e1 2b 31 2d da 40 c2 e5 0a 26 d6
       11 -9 32 -63 44 -31 43 49 45 -38 64 -62 -27 10 38 -42
0000a0 25 65 0b 1f 15 0c d8 ef fd d9 de ef da 2d 4e 2c
       37 101 11 31 21 12 -40 -17 -3 -39 -34 -17 -38 45 78 44
0000b0 ba 0f d9 44 f0 24 0b 0c f3 2d d4 27 d3 e9 09 dd
       -70 15 -39 68 -16 36 11 12 -13 45 -44 39 -45 -23 9 -35
0000c0 00 c6 ab 0c 2b f1 34 c8 16 15 c2 23 ca 2d 38 2d
       0 -58 -85 12 43 -15 52 -56 22 21 -62 35 -54 45 56 45
0000d0 c9 d6 e0 ec 36 19 e0 11 1f 08 2a 2c 1f cf e3 a3
       -55 -42 -32 -20 54 25 -32 17 31 8 42 44 31 -49 -29 -93
0000e0 63 23 f6 2e ea e9 e8 d4 de e4 d6 cf 33 fc 0b d3
       99 35 -10 46 -22 -23 -24 -44 -34 -28 -42 -49 51 -4 11 -45
0000f0 18 e8 10 28 18 e6 4e 73 2b e0 1b 2d fb 1e 29 5e
       24 -24 16 40 24 -26 78 115 43 -32 27 45 -5 30 41 94

model/depthwise_conv2d_6/depthwise1 i1 [1, 3, 3, 512]
000000 1a db 1a c0 85 35 40 03 20 34 f6 b8 d2 f8 81 81
       26 -37 26 -64 -123 53 64 3 32 52 -10 -72 -46 -8 -127 -127
000010 f9 df a4 81 87 7f ef 81 10 d0 29 3d 47 4c bd 7f
       -7 -33 -92 -127 -121 127 -17 -127 16 -48 41 61 71 76 -67 127
000020 0a 54 7f 78 96 7f 89 c5 fa 23 f3 81 60 21 81 7f
       10 84 127 120 -106 127 -119 -59 -6 35 -13 -127 96 33 -127 127
000030 89 f0 bd e0 a0 1a b8 3b b7 08 d9 de 91 4e 86 40
       -119 -16 -67 -32 -96 26 -72 59 -73 8 -39 -34 -111 78 -122 64
000040 e5 f0 d0 e5 7e 7f 4e 56 fe 47 91 a8 70 81 78 f7
       -27 -16 -48 -27 126 127 78 86 -2 71 -111 -88 112 -127 120 -9
000050 4c d1 5a e3 fa 65 fb 15 0e 38 3d dc f3 b9 29 e2
       76 -47 90 -29 -6 101 -5 21 14 56 61 -36 -13 -71 41 -30
000060 7f ba 31 07 e5 1b 40 a4 d6 81 a5 84 75 7f f3 b9
       127 -70 49 7 -27 27 64 -92 -42 -127 -91 -124 117 127 -13 -71
000070 7e 1a 78 4a bb 14 81 9d 32 5c 83 f8 3e de 04 7f
       126 26 120 74 -69 20 -127 -99 50 92 -125 -8 62 -34 4 127
000080 1e 2b 9b dc 94 cf d8 90 28 41 30 9c 1a b1 54 44
       30 43 -101 -36 -108 -49 -40 -112 40 65 48 -100 26 -79 84 68
000090 b0 ec fb b3 22 ed dd 81 e2 9a 35 e9 7f e8 0e c0
       -80 -20 -5 -77 34 -19 -35 -127 -30 -102 53 -23 127 -24 14 -64
0000a0 b4 f5 55 81 9f a7 f0 81 e3 8f 91 fe ab 81 52 1e
       -76 -11 85 -127 -97 -89 -16 -127 -29 -113 -111 -2 -85 -127 82 30
0000b0 87 f0 1c 42 81 4e f5 d4 06 99 bf c2 08 81 25 49
       -121 -16 28 66 -127 78 -11 -44 6 -103 -65 -62 8 -127 37 73
0000c0 81 8d a8 7f 7f 40 6c 83 15 4b f6 31 bb 51 09 81
       -127 -115 -88 127 127 64 108 -125 21 75 -10 49 -69 81 9 -127
0000d0 a1 f9 ac 19 48 b4 7f 0b 47 c1 8e 6e f2 8c c7 bc
       -95 -7 -84 25 72 -76 127 11 71 -63 -114 110 -14 -116 -57 -68
0000e0 2b 97 db 03 7f 38 bc cd 7f 75 08 48 66 62 b2 16
       43 -105 -37 3 127 56 -68 -51 127 117 8 72 102 98 -78 22
0000f0 2f 27 09 18 bc 3c 5f 53 ba 67 19 08 cf f6 5d 7c
       47 39 9 24 -68 60 95 83 -70 103 25 8 -49 -10 93 124

model/conv2d_5/Conv2D i1 [512, 1, 1, 256]
000000 e1 13 27 e8 e6 28 11 f6 f9 19 f7 43 f2 28 c9 ef
       -31 19 39 -24 -26 40 17 -10 -7 25 -9 67 -14 40 -55 -17
000010 1b b7 35 07 cd b4 11 df bd f1 be cf de c0 ed aa
       27 -73 53 7 -51 -76 17 -33 -67 -15 -66 -49 -34 -64 -19 -86
000020 33 ce f0 59 01 af 37 b0 35 45 d0 b9 4a c0 27 eb
       51 -50 -16 89 1 -81 55 -80 53 69 -48 -71 74 -64 39 -21
000030 2c ae cd 2a 44 e2 24 23 63 3f 47 23 9f 3c 02 ff
       44 -82 -51 42 68 -30 36 35 99 63 71 35 -97 60 2 -1
000040 36 28 0f a1 f3 f3 b0 08 04 ee 5c ff 38 24 f7 d8
       54 40 15 -95 -13 -13 -80 8 4 -18 92 -1 56 36 -9 -40
000050 08 39 2d 41 41 19 fc fc 07 19 fc 4b d8 f9 cd 09
       8 57 45 65 65 25 -4 -4 7 25 -4 75 -40 -7 -51 9
000060 f8 6e 43 4a 50 f6 d7 ef 4c 17 f2 e0 a4 0a 2c 13
       -8 110 67 74 80 -10 -41 -17 76 23 -14 -32 -92 10 44 19
000070 24 f2 81 a6 9c c8 e2 e5 56 c0 cf b0 4b 0a 63 c4
       36 -14 -127 -90 -100 -56 -30 -27 86 -64 -49 -80 75 10 99 -60
000080 26 b2 fd c3 11 4e 5a 3f d8 a9 09 f2 08 0b ce 3f
       38 -78 -3 -61 17 78 90 63 -40 -87 9 -14 8 11 -50 63
000090 5d cb 1c 17 25 b0 b3 3a 27 c8 58 16 d1 cd af d2
       93 -53 28 23 37 -80 -77 58 39 -56 88 22 -47 -51 -81 -46
0000a0 c9 cc df ec 5a 46 d4 50 5b dc d5 f5 f8 39 fd 2b
       -55 -52 -33 -20 90 70 -44 80 91 -36 -43 -11 -8 57 -3 43
0000b0 6e d7 4d 4a 15 0f 00 5f 96 3f 02 f2 54 06 30 64
       110 -41 77 74 21 15 0 95 -106 63 2 -14 84 6 48 100
0000c0 1e 53 ee 5a a5 3f 2c fd 4f f8 cd 5d ba f0 2b ea
       30 83 -18 90 -91 63 44 -3 79 -8 -51 93 -70 -16 43 -22
0000d0 c7 21 00 ca 35 cf 61 1b e3 9c f4 cb bb 14 01 d6
       -57 33 0 -54 53 -49 97 27 -29 -100 -12 -53 -69 20 1 -42
0000e0 60 1e 59 ef 4c d1 20 f7 ef ed ea ea dd f9 1e 13
       96 30 89 -17 76 -47 32 -9 -17 -19 -22 -22 -35 -7 30 19
0000f0 bd 95 5e a9 0b bd b5 14 a5 28 fb 0e f8 52 14 09
       -67 -107 94 -87 11 -67 -75 20 -91 40 -5 14 -8 82 20 9

model/depthwise_conv2d_5/depthwise1 i1 [1, 3, 3, 256]
000000 63 fc 81 1f 7a 94 9c 6f d4 7f e2 72 05 7b d0 72
       99 -4 -127 31 122 -108 -100 111 -44 127 -30 114 5 123 -48 114
000010 61 d4 81 21 9d a7 f0 e4 9c 30 95 d7 03 b8 1c 7f
       97 -44 -127 33 -99 -89 -16 -28 -100 48 -107 -41 3 -72 28 127
000020 31 92 c8 9f a3 c1 2b a8 e9 34 18 33 06 93 eb 7f
       49 -110 -56 -97 -93 -63 43 -88 -23 52 24 51 6 -109 -21 127
000030 44 ce 1d 3c d6 81 e9 f5 93 b0 30 2f 08 e4 b1 81
       68 -50 29 60 -42 -127 -23 -11 -109 -80 48 47 8 -28 -79 -127
000040 7f d3 dd 8f 7f 61 b8 a0 20 44 aa 33 24 4b 7f 68
       127 -45 -35 -113 127 97 -72 -96 32 68 -86 51 36 75 127 104
000050 d9 d1 05 7f 7f eb 7f bc f4 da 7f 92 b1 df 94 67
       -39 -47 5 127 127 -21 127 -68 -12 -38 127 -110 -79 -33 -108 103
000060 61 7f 81 42 ee 02 0e c4 cd db 37 af 45 e9 7a 75
       97 127 -127 66 -18 2 14 -60 -51 -37 55 -81 69 -23 122 117
000070 a2 1b 4d 9f ad 73 6c 22 e4 cf cf ca 81 56 9a 62
       -94 27 77 -97 -83 115 108 34 -28 -49 -49 -54 -127 86 -102 98
000080 7f 7f e9 62 3c 0e 81 58 93 b5 39 7f 29 93 fa 60
       127 127 -23 98 60 14 -127 88 -109 -75 57 127 41 -109 -6 96
000090 dc 57 a0 1b fc fa 7f 09 7f 08 7f 81 a9 cd dd 43
       -36 87 -96 27 -4 -6 127 9 127 8 127 -127 -87 -51 -35 67
0000a0 87 90 19 93 21 ae 75 a7 10 7f 1f 94 74 50 18 1d
       -121 -112 25 -109 33 -82 117 -89 16 127 31 -108 116 80 24 29
0000b0 cf 90 2f da ac b7 0a c0 47 81 9f 09 9d 7f 51 bb
       -49 -112 47 -38 -84 -73 10 -64 71 -127 -97 9 -99 127 81 -69
0000c0 3e 4b 09 8d 7f 26 e3 7f 81 9c ae 44 54 b8 2a d1
       62 75 9 -115 127 38 -29 127 -127 -100 -82 68 84 -72 42 -47
0000d0 1e cd f0 79 8d 7f 81 81 8c b4 25 e2 81 86 dd 9f
       30 -51 -16 121 -115 127 -127 -127 -116 -76 37 -30 -127 -122 -35 -97
0000e0 d9 2e 81 29 1e d8 37 6f 2c 84 01 f4 25 12 d5 16
       -39 46 -127 41 30 -40 55 111 44 -124 1 -12 37 18 -43 22
0000f0 fa dd bb 60 c0 10 a5 87 c3 99 ec d7 11 81 11 81
       -6 -35 -69 96 -64 16 -91 -121 -61 -103 -20 -41 17 -127 17 -127

model/conv2d_4/Conv2D i1 [256, 1, 1, 128]
000000 e6 2a 5b 1e 18 3a 1c 5c 24 d7 02 08 52 3b 36 f6
       -26 42 91 30 24 58 28 92 36 -41 2 8 82 59 54 -10
000010 32 68 12 d6 94 de f2 ea 0a 9a 1b 51 c2 03 b2 87
       50 104 18 -42 -108 -34 -14 -22 10 -102 27 81 -62 3 -78 -121
000020 e7 5c 20 66 df e3 1e d3 47 fd d7 b7 07 cc 58 de
       -25 92 32 102 -33 -29 30 -45 71 -3 -41 -73 7 -52 88 -34
000030 f2 47 6b d6 d4 17 54 ff ea b7 45 4b f2 06 f1 9d
       -14 71 107 -42 -44 23 84 -1 -22 -73 69 75 -14 6 -15 -99
000040 b3 f5 1c 53 22 d7 79 a3 cd 1a d2 b3 f7 21 a0 3d
       -77 -11 28 83 34 -41 121 -93 -51 26 -46 -77 -9 33 -96 61
000050 33 1b a8 52 3f bb 5e 39 48 73 f2 dc 2b 5b ad b6
       51 27 -88 82 63 -69 94 57 72 115 -14 -36 43 91 -83 -74
000060 9d 5a f5 b9 44 e3 93 9c f8 32 ec fe 94 e1 3b 13
       -99 90 -11 -71 68 -29 -109 -100 -8 50 -20 -2 -108 -31 59 19
000070 fb 81 b1 ae ec 95 18 fd dd 38 a4 39 9d 97 94 32
       -5 -127 -79 -82 -20 -107 24 -3 -35 56 -92 57 -99 -105 -108 50
000080 ec f5 05 a7 c7 1c b5 b6 d4 0a 1b 34 e7 cc e5 d5
       -20 -11 5 -89 -57 28 -75 -74 -44 10 27 52 -25 -52 -27 -43
000090 db b2 fe c6 fe 3a 27 c5 4a 9c 3b 34 11 21 d5 25
       -37 -78 -2 -58 -2 58 39 -59 74 -100 59 52 17 33 -43 37
0000a0 23 5e 1d 11 d2 2b 50 c8 2d 4f ae ed e4 39 18 35
       35 94 29 17 -46 43 80 -56 45 79 -82 -19 -28 57 24 53
0000b0 b5 e5 f9 e5 de c1 a0 07 57 e2 81 14 ea d5 46 a6
       -75 -27 -7 -27 -34 -63 -96 7 87 -30 -127 20 -22 -43 70 -90
0000c0 28 a9 6e b3 c1 af 1f d3 f9 ff bd cb 4b ab 26 09
       40 -87 110 -77 -63 -81 31 -45 -7 -1 -67 -53 75 -85 38 9
0000d0 62 26 fc f4 f3 f1 0a 54 cc 97 c4 ef de 0a fd d2
       98 38 -4 -12 -13 -15 10 84 -52 -105 -60 -17 -34 10 -3 -46
0000e0 12 2d 06 21 01 e8 5e 46 b8 bc 59 f7 20 f2 03 d8
       18 45 6 33 1 -24 94 70 -72 -68 89 -9 32 -14 3 -40
0000f0 4b 0d b7 3e 0b e6 17 38 5e fb cd 0a 0d c9 c7 dc
       75 13 -73 62 11 -26 23 56 94 -5 -51 10 13 -55 -57 -36

model/depthwise_conv2d_4/depthwise1 i1 [1, 3, 3, 128]
000000 d6 12 6a 8a 74 7f 36 a2 81 fb 38 8e 76 1d d3 97
       -42 18 106 -118 116 127 54 -94 -127 -5 56 -114 118 29 -45 -105
000010 7f f1 a6 b2 fe 7f 7f 12 4e a6 47 f7 61 20 d0 f7
       127 -15 -90 -78 -2 127 127 18 78 -90 71 -9 97 32 -48 -9
000020 7f 40 71 7f 31 2f a5 e6 20 52 0b 7f d7 7f 8a 16
       127 64 113 127 49 47 -91 -26 32 82 11 127 -41 127 -118 22
000030 4f bb e9 74 95 20 92 0c 7f df 97 bd fc 99 ed a2
       79 -69 -23 116 -107 32 -110 12 127 -33 -105 -67 -4 -103 -19 -94
000040 75 d7 52 64 f1 de 8c fc c5 7f 5d a2 28 b9 74 89
       117 -41 82 100 -15 -34 -116 -4 -59 127 93 -94 40 -71 116 -119
000050 5c ac 7f 7f 33 9a 81 84 f4 06 c2 6b 71 b9 f0 69
       92 -84 127 127 51 -102 -127 -124 -12 6 -62 107 113 -71 -16 105
000060 f9 8c db d1 65 5a 41 ce b8 cc e0 df 03 d0 b5 1a
       -7 -116 -37 -47 101 90 65 -50 -72 -52 -32 -33 3 -48 -75 26
000070 11 ab ad 52 94 31 64 81 0c 0b 6f 7f 71 3a e7 a5
       17 -85 -83 82 -108 49 100 -127 12 11 111 127 113 58 -25 -91
000080 6c 93 ee c5 4b 6b 30 de cd d4 31 09 55 a8 5a a4
       108 -109 -18 -59 75 107 48 -34 -51 -44 49 9 85 -88 90 -92
000090 1a 81 bd a9 d7 7c 70 f0 49 ed f0 27 2a 5b f2 7f
       26 -127 -67 -87 -41 124 112 -16 73 -19 -16 39 42 91 -14 127
0000a0 ad d3 7f f8 e8 ee ab 44 df 56 7f f5 81 f6 b1 db
       -83 -45 127 -8 -24 -18 -85 68 -33 86 127 -11 -127 -10 -79 -37
0000b0 81 2c 9c d4 b1 c2 98 96 a5 af 9b a6 81 a5 7f 81
       -127 44 -100 -44 -79 -62 -104 -106 -91 -81 -101 -90 -127 -91 127 -127
0000c0 38 ab 22 4a c4 a6 85 03 14 2b d3 88 90 81 f7 53
       56 -85 34 74 -60 -90 -123 3 20 43 -45 -120 -112 -127 -9 83
0000d0 d8 5f 6f 6e d5 3b 9b 81 25 de 8d 1d e5 b3 f1 fa
       -40 95 111 110 -43 59 -101 -127 37 -34 -115 29 -27 -77 -15 -6
0000e0 76 81 6d dd e9 7f 6e 42 5f 07 5e 21 7a 1e 16 06
       118 -127 109 -35 -23 127 110 66 95 7 94 33 122 30 22 6
0000f0 7b 43 07 73 81 48 27 e0 7f 7f 94 ba e9 7f 22 03
       123 67 7 115 -127 72 39 -32 127 127 -108 -70 -23 127 34 3

model/conv2d_3/Conv2D i1 [128, 1, 1, 64]
000000 c6 3f a3 1b 01 fb e4 38 34 2a 12 19 bd da f6 61
       -58 63 -93 27 1 -5 -28 56 52 42 18 25 -67 -38 -10 97
000010 db df 23 7f ef c2 66 d7 6c 61 9b 2c f8 59 ec dd
       -37 -33 35 127 -17 -62 102 -41 108 97 -101 44 -8 89 -20 -35
000020 c6 2b b2 db 09 50 56 25 aa 14 27 3c 58 24 4b 0a
       -58 43 -78 -37 9 80 86 37 -86 20 39 60 88 36 75 10
000030 53 f4 d7 60 af 8b 36 bd 55 50 b9 49 19 40 f4 e0
       83 -12 -41 96 -81 -117 54 -67 85 80 -71 73 25 64 -12 -32
000040 60 a6 41 f1 e9 57 1f de 49 42 ad bf 10 c3 b6 e8
       96 -90 65 -15 -23 87 31 -34 73 66 -83 -65 16 -61 -74 -24
000050 bd 11 05 ea ee b7 07 e0 f3 0e 15 34 33 e5 7f 46
       -67 17 5 -22 -18 -73 7 -32 -13 14 21 52 51 -27 127 70
000060 ae dc f0 19 cd d9 a9 64 9f 9d e5 26 c7 bb 49 0a
       -82 -36 -16 25 -51 -39 -87 100 -97 -99 -27 38 -57 -69 73 10
000070 0f bd d3 0f 6d 00 5f 5f 18 c9 1b 2a 4d 1c 14 13
       15 -67 -45 15 109 0 95 95 24 -55 27 42 77 28 20 19
000080 42 d9 e3 c9 24 a8 d0 f1 d3 d4 9e f4 0a 47 b3 6b
       66 -39 -29 -55 36 -88 -48 -15 -45 -44 -98 -12 10 71 -77 107
000090 ba ac 38 a0 15 e5 00 cc b2 1f d7 66 2d f9 a8 27
       -70 -84 56 -96 21 -27 0 -52 -78 31 -41 102 45 -7 -88 39
0000a0 4e 81 c3 ac 5b a3 35 bb f2 e4 f4 b2 00 6d ea 17
       78 -127 -61 -84 91 -93 53 -69 -14 -28 -12 -78 0 109 -22 23
0000b0 c4 05 b1 30 9e dc 43 56 db 04 d5 5b a2 4e 49 ad
       -60 5 -79 48 -98 -36 67 86 -37 4 -43 91 -94 78 73 -83
0000c0 49 b2 2e e9 b2 3b 22 b8 ed c6 ef 40 f3 b7 2b 1d
       73 -78 46 -23 -78 59 34 -72 -19 -58 -17 64 -13 -73 43 29
0000d0 f4 34 b9 f7 82 2a df e4 2f 3a d1 f3 d8 63 4a 14
       -12 52 -71 -9 -126 42 -33 -28 47 58 -47 -13 -40 99 74 20
0000e0 99 cd 4e 0c 64 19 53 3c 81 da 8b 35 3c 26 30 b3
       -103 -51 78 12 100 25 83 60 -127 -38 -117 53 60 38 48 -77
0000f0 16 11 14 a7 64 6e 29 68 bc 57 11 da af 40 43 23
       22 17 20 -89 100 110 41 104 -68 87 17 -38 -81 64 67 35

model/depthwise_conv2d_3/depthwise1 i1 [1, 3, 3, 64]
000000 3e 47 81 02 96 a8 f4 75 7f 15 77 7f 55 68 5a ce
       62 71 -127 2 -106 -88 -12 117 127 21 119 127 85 104 90 -50
000010 81 cf 10 67 fd ed a3 d5 48 7f 7f 7c 5a 81 33 ca
       -127 -49 16 103 -3 -19 -93 -43 72 127 127 124 90 -127 51 -54
000020 d1 fe 78 27 bc 38 07 7f 01 7c a2 1a 5d 81 ad 21
       -47 -2 120 39 -68 56 7 127 1 124 -94 26 93 -127 -83 33
000030 b0 95 46 60 e9 f4 91 ed 2c db 81 a6 c6 db c2 82
       -80 -107 70 96 -23 -12 -111 -19 44 -37 -127 -90 -58 -37 -62 -126
000040 0c d6 a2 62 c5 c1 7f 64 5d ad 4d dc 4a c8 7f 65
       12 -42 -94 98 -59 -63 127 100 93 -83 77 -36 74 -56 127 101
000050 97 ae 4c 19 e7 81 cd 04 7f 44 6c 0c b4 a1 3a 59
       -105 -82 76 25 -25 -127 -51 4 127 68 108 12 -76 -95 58 89
000060 a3 24 7a 32 56 7f 05 0c fd 7f 7f 81 84 a0 47 00
       -93 36 122 50 86 127 5 12 -3 127 127 -127 -124 -96 71 0
000070 e0 0a 31 7f 58 6b 1a 1e de 4a ae 60 92 e0 bf 0d
       -32 10 49 127 88 107 26 30 -34 74 -82 96 -110 -32 -65 13
000080 dc 21 c0 ed 81 81 60 7f ec 47 58 5a 7f 7f c0 e8
       -36 33 -64 -19 -127 -127 96 127 -20 71 88 90 127 127 -64 -24
000090 f1 30 18 d4 c2 0c 7f 5d f2 3a 10 45 e7 68 55 d0
       -15 48 24 -44 -62 12 127 93 -14 58 16 69 -25 104 85 -48
0000a0 4c dc ff 6d 2e 18 c3 07 7d 0c a4 e5 60 fe ab 83
       76 -36 -1 109 46 24 -61 7 125 12 -92 -27 96 -2 -85 -125
0000b0 fc da f7 57 1c 28 81 06 90 a9 f3 f5 f3 d3 b5 e8
       -4 -38 -9 87 28 40 -127 6 -112 -87 -13 -11 -13 -45 -75 -24
0000c0 7d fc 33 7f 06 f0 1c 19 f6 e2 5b f8 05 7d 4a f8
       125 -4 51 127 6 -16 28 25 -10 -30 91 -8 5 125 74 -8
0000d0 ba 04 f5 ae fd 08 8b 7f 69 1e 38 50 81 8c 07 36
       -70 4 -11 -82 -3 8 -117 127 105 30 56 80 -127 -116 7 54
0000e0 1b 3c cf 7f 7f 3e c9 1d f9 f1 90 2b 5b f1 02 1a
       27 60 -49 127 127 62 -55 29 -7 -15 -112 43 91 -15 2 26
0000f0 81 a5 ec 2f df 15 b0 5b 1f 9c 88 6e 44 3a 6d f3
       -127 -91 -20 47 -33 21 -80 91 31 -100 -120 110 68 58 109 -13

model/conv2d_2/Conv2D i1 [64, 1, 1, 32]
000000 4e 3c 01 92 2b eb ae b7 7f 15 39 b3 04 1e 30 6d
       78 60 1 -110 43 -21 -82 -73 127 21 57 -77 4 30 48 109
000010 61 ae d7 92 b1 a6 19 b0 cf 5c d7 88 be 2a eb 1f
       97 -82 -41 -110 -79 -90 25 -80 -49 92 -41 -120 -66 42 -21 31
000020 d2 3b 25 e6 fb 3a c6 0f 18 58 49 e6 15 e9 09 35
       -46 59 37 -26 -5 58 -58 15 24 88 73 -26 21 -23 9 53
000030 e8 19 05 3f e7 e2 ad 2c ba d5 24 ae 9a 12 2a 81
       -24 25 5 63 -25 -30 -83 44 -70 -43 36 -82 -102 18 42 -127
000040 50 aa 99 ef c7 5b a2 4f 83 a8 67 c4 4f 22 6f bb
       80 -86 -103 -17 -57 91 -94 79 -125 -88 103 -60 79 34 111 -69
000050 62 40 ea 11 7f a4 cf 65 89 98 45 38 1d ef ba 15
       98 64 -22 17 127 -92 -49 101 -119 -104 69 56 29 -17 -70 21
000060 e3 e6 d8 18 d5 a7 19 81 e6 4a 09 5d f7 cb e9 bf
       -29 -26 -40 24 -43 -89 25 -127 -26 74 9 93 -9 -53 -23 -65
000070 09 73 83 61 da a6 f7 39 11 ff 28 8c 5e c1 60 c5
       9 115 -125 97 -38 -90 -9 57 17 -1 40 -116 94 -63 96 -59
000080 6e b8 dc 19 ce 6c 93 71 cb ff 94 9f b5 fb 81 8d
       110 -72 -36 25 -50 108 -109 113 -53 -1 -108 -97 -75 -5 -127 -115
000090 43 dd 23 3f 4f 54 86 5d 1a 90 f3 32 c8 02 dc 0c
       67 -35 35 63 79 84 -122 93 26 -112 -13 50 -56 2 -36 12
0000a0 be 0c 2c dc 4f 20 cb dd ee 5f b0 7f 70 d8 43 a8
       -66 12 44 -36 79 32 -53 -35 -18 95 -80 127 112 -40 67 -88
0000b0 1d 44 0e 30 27 d0 32 b9 58 dc 6c 75 f0 48 6c 39
       29 68 14 48 39 -48 50 -71 88 -36 108 117 -16 72 108 57
0000c0 40 82 15 41 c1 2a d5 ba 3e 95 a9 8e b1 f2 ca ba
       64 -126 21 65 -63 42 -43 -70 62 -107 -87 -114 -79 -14 -54 -70
0000d0 d2 fc 1e 5b 39 42 48 26 eb 44 51 d2 81 00 1a d1
       -46 -4 30 91 57 66 72 38 -21 68 81 -46 -127 0 26 -47
0000e0 e8 66 9f 37 d6 ab 70 d1 7f ce 44 fd 8c de c6 a8
       -24 102 -97 55 -42 -85 112 -47 127 -50 68 -3 -116 -34 -58 -88
0000f0 4e 0a db 63 99 39 ff 36 ae 5f 03 ad f2 1c eb 1e
       78 10 -37 99 -103 57 -1 54 -82 95 3 -83 -14 28 -21 30

model/depthwise_conv2d_2/depthwise1 i1 [1, 3, 3, 32]
000000 98 81 fb 5a bd 15 8b 3e 40 dd 93 7f a8 f8 a9 2f
       -104 -127 -5 90 -67 21 -117 62 64 -35 -109 127 -88 -8 -87 47
000010 b9 b9 46 e5 e0 2b 5d c7 ec 3d cc f7 ec 51 f3 7f
       -71 -71 70 -27 -32 43 93 -57 -20 61 -52 -9 -20 81 -13 127
000020 6d 36 81 91 d5 4c 94 1d 9d 30 ed 73 c4 81 81 61
       109 54 -127 -111 -43 76 -108 29 -99 48 -19 115 -60 -127 -127 97
000030 88 85 31 81 87 4e d0 4c f3 7f d4 27 bc ee 16 79
       -120 -123 49 -127 -121 78 -48 76 -13 127 -44 39 -68 -18 22 121
000040 81 40 c0 09 41 67 17 68 ff 04 d9 6d 81 bc 95 0e
       -127 64 -64 9 65 103 23 104 -1 4 -39 109 -127 -68 -107 14
000050 88 4a c9 14 73 69 b1 a7 b5 d1 1e 79 48 6c 67 7c
       -120 74 -55 20 115 105 -79 -89 -75 -47 30 121 72 108 103 124
000060 65 c9 0c e8 78 16 9c 1a 81 2f c3 6d 29 17 cf 17
       101 -55 12 -24 120 22 -100 26 -127 47 -61 109 41 23 -49 23
000070 a7 81 ce 18 7f 24 59 7f 2b fb 5d 50 53 7f 5a 5e
       -89 -127 -50 24 127 36 89 127 43 -5 93 80 83 127 90 94
000080 03 3c 10 76 7f 22 c7 27 b9 56 b8 06 04 d6 99 ef
       3 60 16 118 127 34 -57 39 -71 86 -72 6 4 -42 -103 -17
000090 cf 4e f5 f1 19 7f 81 2e 75 cf a5 0b 96 64 7f 6c
       -49 78 -11 -15 25 127 -127 46 117 -49 -91 11 -106 100 127 108
0000a0 fc be c1 7f 2f 41 b5 7f b4 7f 7f 66 db d4 e6 7f
       -4 -66 -63 127 47 65 -75 127 -76 127 127 102 -37 -44 -26 127
0000b0 81 43 04 b8 4e 6c c2 5f 45 0e 01 73 7f 3d 42 49
       -127 67 4 -72 78 108 -62 95 69 14 1 115 127 61 66 73
0000c0 83 d5 a3 8f db 7f 81 6d 2f 60 1e 4b eb 1d e8 7d
       -125 -43 -93 -113 -37 127 -127 109 47 96 30 75 -21 29 -24 125
0000d0 c7 a6 81 23 98 e4 eb f6 79 90 d8 7f 63 dd cd fd
       -57 -90 -127 35 -104 -28 -21 -10 121 -112 -40 127 99 -35 -51 -3
0000e0 3c b7 a5 22 c3 35 d9 75 38 5a ff ea d3 9b eb 06
       60 -73 -91 34 -61 53 -39 117 56 90 -1 -22 -45 -101 -21 6
0000f0 ef 70 1b b1 2f 02 6e 0f 35 c1 5c 0b bd 7e fb fa
       -17 112 27 -79 47 2 110 15 53 -63 92 11 -67 126 -5 -6

model/conv2d_1/Conv2D i1 [32, 1, 1, 8]
000000 7f 1d 22 53 6c a6 61 27 a4 ca fd 7f 19 e6 9b e7
       127 29 34 83 108 -90 97 39 -92 -54 -3 127 25 -26 -101 -25
000010 41 de 2b 81 4f d7 b1 54 d4 81 2c af 66 e0 e9 c8
       65 -34 43 -127 79 -41 -79 84 -44 -127 44 -81 102 -32 -23 -56
000020 7f 4b af c7 4e a9 60 6e 99 f2 2b c9 d9 81 0d 7f
       127 75 -81 -57 78 -87 96 110 -103 -14 43 -55 -39 -127 13 127
000030 d9 31 c1 fc 2d 81 4a 1b 49 d4 2f 81 c2 05 e4 af
       -39 49 -63 -4 45 -127 74 27 73 -44 47 -127 -62 5 -28 -81
000040 ef 81 a2 fa 67 f5 3f c8 7b b9 1c 81 3e 53 4a 48
       -17 -127 -94 -6 103 -11 63 -56 123 -71 28 -127 62 83 74 72
000050 7f d2 db ff 42 1c 04 94 7f fe ba e7 40 1c eb bd
       127 -46 -37 -1 66 28 4 -108 127 -2 -70 -25 64 28 -21 -67
000060 4f d5 f8 81 3a 23 af 99 81 34 52 08 b4 28 d7 32
       79 -43 -8 -127 58 35 -81 -103 -127 52 82 8 -76 40 -41 50
000070 7f cf b3 a0 f9 4b e3 a0 3a 8a 53 5f 64 b1 81 64
       127 -49 -77 -96 -7 75 -29 -96 58 -118 83 95 100 -79 -127 100
000080 98 c2 49 02 b0 7f dd cc fd 0d c5 ff 81 73 db 05
       -104 -62 73 2 -80 127 -35 -52 -3 13 -59 -1 -127 115 -37 5
000090 b4 7f 43 fe 1f 8e 0a 07 4f 90 f4 81 11 1e bf fe
       -76 127 67 -2 31 -114 10 7 79 -112 -12 -127 17 30 -65 -2
0000a0 40 81 48 e7 07 03 e0 d6 6f 68 c0 9b 84 7f ad df
       64 -127 72 -25 7 3 -32 -42 111 104 -64 -101 -124 127 -83 -33
0000b0 08 cd 10 81 2d 49 be 42 24 2c 4b fb 51 7f ec 98
       8 -51 16 -127 45 73 -66 66 36 44 75 -5 81 127 -20 -104
0000c0 cb d5 69 81 af f5 60 ff 0a e4 2f ee 07 81 9d 52
       -53 -43 105 -127 -81 -11 96 -1 10 -28 47 -18 7 -127 -99 82
0000d0 8c 47 b5 7f 86 07 00 05 cb 01 55 13 d3 81 53 db
       -116 71 -75 127 -122 7 0 5 -53 1 85 19 -45 -127 83 -37
0000e0 05 54 ea e4 24 3a b9 7f 7f a2 44 d2 a2 2f 9a cd
       5 84 -22 -28 36 58 -71 127 127 -94 68 -46 -94 47 -102 -51
0000f0 26 8a 1f 81 12 49 bc 33 a7 e4 4b f2 9f 81 06 4c
       38 -118 31 -127 18 73 -68 51 -89 -28 75 -14 -97 -127 6 76

model/depthwise_conv2d_1/depthwise1 i1 [1, 3, 3, 8]
000000 a1 3e e8 ee 4a 9e bf bf 08 5d a1 bf dd e5 3e 01
       -95 62 -24 -18 74 -98 -65 -65 8 93 -95 -65 -35 -27 62 1
000010 f3 00 81 bd 6b d5 81 af 81 7f a7 81 e4 fd 88 db
       -13 0 -127 -67 107 -43 -127 -81 -127 127 -89 -127 -28 -3 -120 -37
000020 93 58 33 19 5a a7 a2 36 d9 e4 19 cc 64 f1 d6 91
       -109 88 51 25 90 -89 -94 54 -39 -28 25 -52 100 -15 -42 -111
000030 fa 04 a7 98 c7 d9 36 81 13 69 e0 98 7f c0 52 22
       -6 4 -89 -104 -57 -39 54 -127 19 105 -32 -104 127 -64 82 34
000040 95 6b d3 e9 b5 81 01 ed
       -107 107 -45 -23 -75 -127 1 -19

model/conv2d/Conv2D i1 [8, 1, 1, 3]
000000 7f ee 47 7f d7 00 81 ee ae c0 e3 81 0f 7f 9d 4b
       127 -18 71 127 -41 0 -127 -18 -82 -64 -29 -127 15 127 -99 75
000010 81 ed 76 46 81 7f 2b 9f
       -127 -19 118 70 -127 127 43 -97

model/depthwise_conv2d/depthwise1 i1 [1, 3, 3, 3]
000000 ed 10 2d f6 3d c2 00 d0 20 2d f5 1e 7f 7f 81 71
       -19 16 45 -10 61 -62 0 -48 32 45 -11 30 127 127 -127 113
000010 21 af 2b 69 92 2c b3 02 cc 64 16
       33 -81 43 105 -110 44 -77 2 -52 100 22
