src/models/mnv2/mobilenetv1_wino4.tflite (tflite, 74288 bytes, 11 tensors)

model/dense/MatMul i1 [10, 256] scale=0.02537476 zero_point=0
00000000: 0ff6 b7eb e903 16f6 0523 e0c7 eaad 06f5
00000010: 2806 0010 fce2 c2f9 0af9 e7ef 2701 03f5
00000020: eded d903 0fec 17dc fee9 24eb ecd7 f1f8
00000030: 021c d8ec f5e9 f501 f8eb 1e27 09f8 f421
00000040: f10c 0704 0d24 f61f f6e1 c31b 020f f8f4
00000050: 2322 d812 1108 37ff 1308 0ff7 10d7 f705
00000060: edd5 d1f4 f309 f315 fde4 0eec ec15 170c
00000070: 13f5 00cd c11e f100 ecc9 e6fb 470b b203
00000080: 1aec f1df 16fa e205 19e4 37f3 02db 3f0a
00000090: cef6 07d5 f31c 1a15 ff25 1602 21f7 02ed
000000a0: f2cb 0afe 120b 2a29 ef33 ec1a 2de0 2237
000000b0: f716 423a fcfe 162d e7c0 e8bc e517 09e2
000000c0: e028 1d1a 9c14 fb2b 1f29 0523 24fc f5df
000000d0: fcfe effe 14dd 3d30 eb33 1308 b101 1cf7
000000e0: e30f 09f4 e60a e808 f3e3 f807 f010 2955
000000f0: 0a21 0201 f01d 17f5 fc1f e8d8 c615 d207
0.3806214 -0.2537476 -1.8523575 -0.53287 -0.5836195 0.07612428 0.55824476 -0.2537476
0.1268738 0.88811666 -0.81199235 -1.4463614 -0.55824476 -2.106105 0.15224856 -0.27912238
1.0149904 0.15224856 0.0 0.40599617 -0.10149904 -0.7612428 -1.5732352 -0.17762333
0.2537476 -0.17762333 -0.634369 -0.43137094 0.9896157 0.02537476 0.07612428 -0.27912238
-0.48212045 -0.48212045 -0.9896157 0.07612428 0.3806214 -0.5074952 0.5836195 -0.91349137
-0.05074952 -0.5836195 0.91349137 -0.53287 -0.5074952 -1.0403652 -0.3806214 -0.20299809
0.05074952 0.7104933 -1.0149904 -0.5074952 -0.27912238 -0.5836195 -0.27912238 0.02537476
-0.20299809 -0.53287 0.7612428 0.9896157 0.22837284 -0.20299809 -0.30449712 0.8373671
-0.3806214 0.30449712 0.17762333 0.10149904 0.3298719 0.91349137 -0.2537476 0.7866176
-0.2537476 -0.7866176 -1.5478604 0.68511856 0.05074952 0.3806214 -0.20299809 -0.30449712
0.88811666 0.8627419 -1.0149904 0.45674568 0.43137094 0.20299809 1.3956119 -0.02537476
0.48212045 0.20299809 0.3806214 -0.22837284 0.40599617 -1.0403652 -0.22837284 0.1268738
-0.48212045 -1.0911148 -1.1926137 -0.30449712 -0.3298719 0.22837284 -0.3298719 0.53287
-0.07612428 -0.7104933 0.35524666 -0.5074952 -0.5074952 0.53287 0.5836195 0.30449712
0.48212045 -0.27912238 0.0 -1.2941128 -1.5986099 0.7612428 -0.3806214 0.0
-0.5074952 -1.3956119 -0.6597438 -0.1268738 1.801608 0.27912238 -1.9792314 0.07612428
0.6597438 -0.5074952 -0.3806214 -0.8373671 0.55824476 -0.15224856 -0.7612428 0.1268738
0.634369 -0.7104933 1.3956119 -0.3298719 0.05074952 -0.93886614 1.5986099 0.2537476
-1.268738 -0.2537476 0.17762333 -1.0911148 -0.3298719 0.7104933 0.6597438 0.53287
-0.02537476 0.93886614 0.55824476 0.05074952 0.8373671 -0.22837284 0.05074952 -0.48212045
-0.35524666 -1.3448623 0.2537476 -0.05074952 0.45674568 0.27912238 1.06574 1.0403652
-0.43137094 1.2941128 -0.5074952 0.6597438 1.1418642 -0.81199235 0.8627419 1.3956119
-0.22837284 0.55824476 1.6747342 1.4717361 -0.10149904 -0.05074952 0.55824476 1.1418642
-0.634369 -1.6239847 -0.60899425 -1.7254838 -0.68511856 0.5836195 0.22837284 -0.7612428
-0.81199235 1.0149904 0.73586804 0.6597438 -2.537476 0.5074952 -0.1268738 1.0911148
0.7866176 1.0403652 0.1268738 0.88811666 0.91349137 -0.10149904 -0.27912238 -0.8373671
-0.10149904 -0.05074952 -0.43137094 -0.05074952 0.5074952 -0.88811666 1.5478604 1.2179885
-0.53287 1.2941128 0.48212045 0.20299809 -2.004606 0.02537476 0.7104933 -0.22837284
-0.73586804 0.3806214 0.22837284 -0.30449712 -0.6597438 0.2537476 -0.60899425 0.20299809
-0.3298719 -0.73586804 -0.20299809 0.17762333 -0.40599617 0.40599617 1.0403652 2.1568546
0.2537476 0.8373671 0.05074952 0.02537476 -0.40599617 0.73586804 0.5836195 -0.27912238
-0.10149904 0.7866176 -0.60899425 -1.0149904 -1.4717361 0.53287 -1.167239 0.17762333

model/conv2d_4/Conv2D1 i1 [256, 1, 1, 128]
00000000: 0e0d 17d1 effe faf8 d8fc f5f9 0f09 f622
00000010: 1801 e9fd eff5 d70f f4f4 fa19 15f6 0fff
00000020: f3e6 0cf9 1ef7 effa eefe fbef 03e9 faf2
00000030: 032e f705 f7f8 ee02 ef0a 00df 10ff 0e00
00000040: eeff f217 eb06 fc21 f4e1 f7fd f20b e5e2
00000050: 42f0 050d 10f8 f8f9 fd02 ef07 11fc 0704
00000060: eb18 fc1d cffa 2081 08c9 0e15 11f9 e611
00000070: 1001 0ee0 1510 1512 1201 07f2 24ff 1215
00000080: f4e7 2337 e806 ebfb d102 051d 170f 014c
00000090: da1d 0aeb f715 d80a dafc 0afb 07f5 e2fd
000000a0: 01fd ff1c e600 ee24 fe25 10e8 ebe2 e901
000000b0: 225f de01 0ac4 f6e2 1233 81dd f1d5 d51e
000000c0: 26ef 1004 1f0b f600 e4eb f50f f327 d81e
000000d0: e9f6 fcfe d4c9 04d0 cb1e fc1f 060a 0c0c
000000e0: ffe4 fad1 d999 02d5 ff09 1522 2c09 fa07
000000f0: 0e01 f0f2 0421 1f03 e0ef 1903 fd0a 31d7
14 13 23 -47 -17 -2 -6 -8
-40 -4 -11 -7 15 9 -10 34
24 1 -23 -3 -17 -11 -41 15
-12 -12 -6 25 21 -10 15 -1
-13 -26 12 -7 30 -9 -17 -6
-18 -2 -5 -17 3 -23 -6 -14
3 46 -9 5 -9 -8 -18 2
-17 10 0 -33 16 -1 14 0
-18 -1 -14 23 -21 6 -4 33
-12 -31 -9 -3 -14 11 -27 -30
66 -16 5 13 16 -8 -8 -7
-3 2 -17 7 17 -4 7 4
-21 24 -4 29 -49 -6 32 -127
8 -55 14 21 17 -7 -26 17
16 1 14 -32 21 16 21 18
18 1 7 -14 36 -1 18 21
-12 -25 35 55 -24 6 -21 -5
-47 2 5 29 23 15 1 76
-38 29 10 -21 -9 21 -40 10
-38 -4 10 -5 7 -11 -30 -3
1 -3 -1 28 -26 0 -18 36
-2 37 16 -24 -21 -30 -23 1
34 95 -34 1 10 -60 -10 -30
18 51 -127 -35 -15 -43 -43 30
38 -17 16 4 31 11 -10 0
-28 -21 -11 15 -13 39 -40 30
-23 -10 -4 -2 -44 -55 4 -48
-53 30 -4 31 6 10 12 12
-1 -28 -6 -47 -39 -103 2 -43
-1 9 21 34 44 9 -6 7
14 1 -16 -14 4 33 31 3
-32 -17 25 3 -3 10 49 -41

model/depthwise_conv2d_4/depthwise1 i1 [1, 3, 3, 128]
00000000: 2f58 1113 4bbf e681 667f 1e5c 46f1 f381
00000010: 7f2b 230f a612 ff3c 7faf 9b3d ae95 2efa
00000020: fd5c 64ff 438a ea02 4c5b 0d21 4b7f 8150
00000030: d281 9094 2144 7c0a cbe8 373c 0407 bc38
00000040: 7f7f 81a0 8e01 da36 b0ba d305 27ca 038a
00000050: e299 083a 7f53 0899 27be 40ae 1969 ca7f
00000060: 81eb d372 e27d e67f 627f 136f 63ee 837f
00000070: 4306 8153 00d4 9950 7fd3 e476 812b 957f
00000080: 273f c2dd 2acf fcfe 5b57 307f 3b08 1fce
00000090: 3d46 4737 e1c8 c451 6bbe d349 b00b 2eba
000000a0: ea4e 7b02 4ceb e13f 705c 1439 7953 c33f
000000b0: d097 a4b9 5b1e 3be6 d5e7 335f fe7f b7cb
000000c0: 0260 9c96 951c cf7f c38b a210 49f5 fc82
000000d0: ee9a 1164 643a 18be 4110 2fba f61a cf39
000000e0: d0d3 e76e e07f 1449 7f38 3b50 20e1 9d40
000000f0: 7f1d b527 fbb1 c058 33be 1039 9c61 bd4a
47 88 17 19 75 -65 -26 -127
102 127 30 92 70 -15 -13 -127
127 43 35 15 -90 18 -1 60
127 -81 -101 61 -82 -107 46 -6
-3 92 100 -1 67 -118 -22 2
76 91 13 33 75 127 -127 80
-46 -127 -112 -108 33 68 124 10
-53 -24 55 60 4 7 -68 56
127 127 -127 -96 -114 1 -38 54
-80 -70 -45 5 39 -54 3 -118
-30 -103 8 58 127 83 8 -103
39 -66 64 -82 25 105 -54 127
-127 -21 -45 114 -30 125 -26 127
98 127 19 111 99 -18 -125 127
67 6 -127 83 0 -44 -103 80
127 -45 -28 118 -127 43 -107 127
39 63 -62 -35 42 -49 -4 -2
91 87 48 127 59 8 31 -50
61 70 71 55 -31 -56 -60 81
107 -66 -45 73 -80 11 46 -70
-22 78 123 2 76 -21 -31 63
112 92 20 57 121 83 -61 63
-48 -105 -92 -71 91 30 59 -26
-43 -25 51 95 -2 127 -73 -53
2 96 -100 -106 -107 28 -49 127
-61 -117 -94 16 73 -11 -4 -126
-18 -102 17 100 100 58 24 -66
65 16 47 -70 -10 26 -49 57
-48 -45 -25 110 -32 127 20 73
127 56 59 80 32 -31 -99 64
127 29 -75 39 -5 -79 -64 88
51 -66 16 57 -100 97 -67 74

model/conv2d_3/Conv2D i1 [128, 1, 1, 64]
00000000: e20b 1e02 00f2 fc2a fa12 1e10 24c8 eeef
00000010: 7f04 f6e3 fed1 f4e8 11e7 1220 0af2 30eb
00000020: f3f4 8ceb f75f 0df1 e9e7 14cf 054d fbf3
00000030: 0cdf 0304 fd0b 03f0 050a f418 fbfb f7f0
00000040: fbfd e8fa 0101 07ff 1002 05e7 fdf6 d7dd
00000050: 13f6 f1f2 c908 f909 f023 0a02 11f5 06fb
00000060: 04e0 81ff 2ffb bd2f 200d efe3 0f0e 07fb
00000070: 07ec 0019 0ffa 0708 f2ef 06e2 f11a f2fb
00000080: 0eed 16c1 e7f6 f7fb f206 0ecd 0eef f6d7
00000090: f1de f926 f9fc 4ee9 ecee cf16 0ee6 033b
000000a0: 2af8 0018 0d04 fcfe e8e7 dad2 0ec2 61f7
000000b0: 7fec f068 fd0f 02b8 c8a1 05f6 06dc 182c
000000c0: ed33 330b 44d7 26e0 0604 3267 2ad9 1a08
000000d0: 210a 32ca f813 fd1b ef57 d4f9 7fe0 eae4
000000e0: 19be ae3f fcf7 f1f6 f115 1806 0a1a 2d1c
000000f0: 3faf f612 08d4 1011 1de9 2b44 0de0 00f4
-30 11 30 2 0 -14 -4 42
-6 18 30 16 36 -56 -18 -17
127 4 -10 -29 -2 -47 -12 -24
17 -25 18 32 10 -14 48 -21
-13 -12 -116 -21 -9 95 13 -15
-23 -25 20 -49 5 77 -5 -13
12 -33 3 4 -3 11 3 -16
5 10 -12 24 -5 -5 -9 -16
-5 -3 -24 -6 1 1 7 -1
16 2 5 -25 -3 -10 -41 -35
19 -10 -15 -14 -55 8 -7 9
-16 35 10 2 17 -11 6 -5
4 -32 -127 -1 47 -5 -67 47
32 13 -17 -29 15 14 7 -5
7 -20 0 25 15 -6 7 8
-14 -17 6 -30 -15 26 -14 -5
14 -19 22 -63 -25 -10 -9 -5
-14 6 14 -51 14 -17 -10 -41
-15 -34 -7 38 -7 -4 78 -23
-20 -18 -49 22 14 -26 3 59
42 -8 0 24 13 4 -4 -2
-24 -25 -38 -46 14 -62 97 -9
127 -20 -16 104 -3 15 2 -72
-56 -95 5 -10 6 -36 24 44
-19 51 51 11 68 -41 38 -32
6 4 50 103 42 -39 26 8
33 10 50 -54 -8 19 -3 27
-17 87 -44 -7 127 -32 -22 -28
25 -66 -82 63 -4 -9 -15 -10
-15 21 24 6 10 26 45 28
63 -81 -10 18 8 -44 16 17
29 -23 43 68 13 -32 0 -12

model/depthwise_conv2d_3/depthwise1 i1 [1, 3, 3, 64]
00000000: abb4 812f 91ba e4c1 7110 4f0c 3bf3 5c7d
00000010: c6c1 15ae 7f0c 488a f0e1 2681 c853 617f
00000020: 13ce dac0 93ee 2881 8e10 cecc 22ed b31a
00000030: 1a7f 3ac3 6281 684f d9e4 19aa eb53 58f3
00000040: 81d6 832c bfb3 eaa4 7f2d 35ce 4db2 667f
00000050: c1cf 44c4 4409 2f81 ddd7 7fb1 f238 7f7e
00000060: 32af f3ba 81e1 5a8c 812a 86eb c3cc 810e
00000070: cf33 f1b6 7fbd 6a61 90d9 eeb7 1a36 7fe8
00000080: ab81 9920 ccf5 4781 5308 54e5 7f81 4265
00000090: c8a1 72dc 0838 03a4 81ab 17a3 d421 6520
000000a0: 2381 e8df acad 49fb 8b00 ad20 81a6 87cc
000000b0: 9d71 c99c 608f 48fd 85cd c4de 337f 6b00
000000c0: 04e2 0923 81d9 7fbc 1c1e f7b0 2d59 7f13
000000d0: b281 36b5 204f 1096 cc81 18d0 d963 4c70
000000e0: fde3 02a5 c4b1 200b f537 95f9 2fc2 b31e
000000f0: e748 d8c0 64fa 7f42 979c f1cd 0fe7 53aa
-85 -76 -127 47 -111 -70 -28 -63
113 16 79 12 59 -13 92 125
-58 -63 21 -82 127 12 72 -118
-16 -31 38 -127 -56 83 97 127
19 -50 -38 -64 -109 -18 40 -127
-114 16 -50 -52 34 -19 -77 26
26 127 58 -61 98 -127 104 79
-39 -28 25 -86 -21 83 88 -13
-127 -42 -125 44 -65 -77 -22 -92
127 45 53 -50 77 -78 102 127
-63 -49 68 -60 68 9 47 -127
-35 -41 127 -79 -14 56 127 126
50 -81 -13 -70 -127 -31 90 -116
-127 42 -122 -21 -61 -52 -127 14
-49 51 -15 -74 127 -67 106 97
-112 -39 -18 -73 26 54 127 -24
-85 -127 -103 32 -52 -11 71 -127
83 8 84 -27 127 -127 66 101
-56 -95 114 -36 8 56 3 -92
-127 -85 23 -93 -44 33 101 32
35 -127 -24 -33 -84 -83 73 -5
-117 0 -83 32 -127 -90 -121 -52
-99 113 -55 -100 96 -113 72 -3
-123 -51 -60 -34 51 127 107 0
4 -30 9 35 -127 -39 127 -68
28 30 -9 -80 45 89 127 19
-78 -127 54 -75 32 79 16 -106
-52 -127 24 -48 -39 99 76 112
-3 -29 2 -91 -60 -79 32 11
-11 55 -107 -7 47 -62 -77 30
-25 72 -40 -64 100 -6 127 66
-105 -100 -15 -51 15 -25 83 -86

model/conv2d_2/Conv2D i1 [64, 1, 1, 32]
00000000: ce81 1421 dc68 4302 d6f0 851a 0702 043c
00000010: eb0b e126 e2fd 1c24 20ec 990d 33dd ef21
00000020: fd18 04f7 b4fb 0b07 19f8 fbf4 1c0a 0ad4
00000030: f92b 1af2 cf1e 1508 7f21 dafb e518 f102
00000040: ee19 ef27 8181 e8ca 2923 1715 16e0 e1ed
00000050: 202b b534 0e67 15d7 5fdf 35f9 0815 ab46
00000060: 0247 10b4 f0e6 01c2 af23 1b08 0241 19e2
00000070: 0e06 3604 9010 e605 751c 14fd 8134 fa27
00000080: ef62 db07 0fea bdea 2500 abcd 40f4 3c08
00000090: c505 81d4 33e3 d635 d2ca f832 4aed 182f
000000a0: fde7 03f6 fd07 eef9 fbf4 fe14 f3fb 8104
000000b0: 03fa 1102 0a04 1ef9 01f8 d107 0bf4 03fe
000000c0: e916 22d5 0bf3 2915 ba01 15bd f1eb dc1a
000000d0: 2ec6 231f ea05 01e3 d8d1 13f0 f322 7f50
000000e0: 0336 cad8 9bcd a0b4 1d34 20fc e5f7 1bfd
000000f0: dc81 39e8 77be 38d3 17f4 e8b7 dcee f52c
-50 -127 20 33 -36 104 67 2
-42 -16 -123 26 7 2 4 60
-21 11 -31 38 -30 -3 28 36
32 -20 -103 13 51 -35 -17 33
-3 24 4 -9 -76 -5 11 7
25 -8 -5 -12 28 10 10 -44
-7 43 26 -14 -49 30 21 8
127 33 -38 -5 -27 24 -15 2
-18 25 -17 39 -127 -127 -24 -54
41 35 23 21 22 -32 -31 -19
32 43 -75 52 14 103 21 -41
95 -33 53 -7 8 21 -85 70
2 71 16 -76 -16 -26 1 -62
-81 35 27 8 2 65 25 -30
14 6 54 4 -112 16 -26 5
117 28 20 -3 -127 52 -6 39
-17 98 -37 7 15 -22 -67 -22
37 0 -85 -51 64 -12 60 8
-59 5 -127 -44 51 -29 -42 53
-46 -54 -8 50 74 -19 24 47
-3 -25 3 -10 -3 7 -18 -7
-5 -12 -2 20 -13 -5 -127 4
3 -6 17 2 10 4 30 -7
1 -8 -47 7 11 -12 3 -2
-23 22 34 -43 11 -13 41 21
-70 1 21 -67 -15 -21 -36 26
46 -58 35 31 -22 5 1 -29
-40 -47 19 -16 -13 34 127 80
3 54 -54 -40 -101 -51 -96 -76
29 52 32 -4 -27 -9 27 -3
-36 -127 57 -24 119 -66 56 -45
23 -12 -24 -73 -36 -18 -11 44

model/depthwise_conv2d_2/depthwise1 i1 [1, 3, 3, 32]
00000000: cd42 08eb a4e0 c8ee 28c4 4c44 2221 7f09
00000010: b60e bb20 127f 32e3 b642 34f6 073d 21e0
00000020: bd44 1a23 81d1 fa82 0a09 73ef 2272 3ac6
00000030: 9c81 fb31 af73 7b9f 96b6 2ce8 eb02 c30b
00000040: d835 f77f 9afc 7ffb f364 0f99 151f c9b9
00000050: bfc9 2b7f 8139 7f9e 819b 36ca c7eb d61f
00000060: b75c 1d43 23df f8d1 7f03 547f 0d5b 71cd
00000070: 9256 7f51 33f7 e2fa cbfb 431b 7fe5 c301
00000080: 8151 003d 42bc 2b98 31e3 7f01 c87f 589b
00000090: 9f26 3c3b 0725 140d eaaa 7fdd 4b00 81cb
000000a0: d026 45e4 0bdb 6012 043e 11bc c46e 429b
000000b0: 38b2 752b ad63 2f0a cc81 0df5 1fd2 9ed9
000000c0: f22d 7fcf 1dab 1332 1c00 087a 2819 5481
000000d0: f6b8 574a 5403 c4fc 2b1a 057f 560c 24e3
000000e0: 997f 3290 598f 3c7f 2c87 1b52 9f46 5984
000000f0: 534b 36b2 672b d865 3afe 797a 4700 dd9e
-51 66 8 -21 -92 -32 -56 -18
40 -60 76 68 34 33 127 9
-74 14 -69 32 18 127 50 -29
-74 66 52 -10 7 61 33 -32
-67 68 26 35 -127 -47 -6 -126
10 9 115 -17 34 114 58 -58
-100 -127 -5 49 -81 115 123 -97
-106 -74 44 -24 -21 2 -61 11
-40 53 -9 127 -102 -4 127 -5
-13 100 15 -103 21 31 -55 -71
-65 -55 43 127 -127 57 127 -98
-127 -101 54 -54 -57 -21 -42 31
-73 92 29 67 35 -33 -8 -47
127 3 84 127 13 91 113 -51
-110 86 127 81 51 -9 -30 -6
-53 -5 67 27 127 -27 -61 1
-127 81 0 61 66 -68 43 -104
49 -29 127 1 -56 127 88 -101
-97 38 60 59 7 37 20 13
-22 -86 127 -35 75 0 -127 -53
-48 38 69 -28 11 -37 96 18
4 62 17 -68 -60 110 66 -101
56 -78 117 43 -83 99 47 10
-52 -127 13 -11 31 -46 -98 -39
-14 45 127 -49 29 -85 19 50
28 0 8 122 40 25 84 -127
-10 -72 87 74 84 3 -60 -4
43 26 5 127 86 12 36 -29
-103 127 50 -112 89 -113 60 127
44 -121 27 82 -97 70 89 -124
83 75 54 -78 103 43 -40 101
58 -2 121 122 71 0 -35 -98

model/conv2d_1/Conv2D i1 [32, 1, 1, 8]
00000000: 09f8 8147 fdf5 0508 ff43 0f2e 433c 357f
00000010: fa81 da27 3ba2 64ee ebcf 0051 5281 41d2
00000020: eb86 2727 7fb5 c921 bf7f 1fe0 cb21 22e9
00000030: fbf9 d62d fee3 117f e681 e5db 450c 19b9
00000040: 1a18 81a2 eb2d e7fa ea81 13f1 e2f8 ce30
00000050: 164b 1d7f 6922 2703 64ba e197 7feb ec00
00000060: ec7f eceb 0f01 f074 eee4 7fba 1013 0af5
00000070: f424 a6d6 ec20 7f21 7fb5 34e9 21d7 34b1
00000080: d67f ec4a d726 e200 40dc 7f8a 61d7 dbd4
00000090: e6ae cd44 1232 087f 9881 ed66 f9e0 4170
000000a0: 8111 38a9 bcfb c233 e2f4 167f 0c3d 0dd8
000000b0: 0ad9 81ee 1f28 c3d7 afee 2afa c1c9 818c
000000c0: 2a2b 517f 06b4 1dd3 f00e 2493 30e7 3181
000000d0: 7f00 5348 0109 ec43 855e e5ee 81fd df0d
000000e0: 3b92 0c7f d2ae cd99 2681 f29f 18ea f9d6
000000f0: 37ce 2181 f423 cc03 1e7f 1121 130e f236
9 -8 -127 71 -3 -11 5 8
-1 67 15 46 67 60 53 127
-6 -127 -38 39 59 -94 100 -18
-21 -49 0 81 82 -127 65 -46
-21 -122 39 39 127 -75 -55 33
-65 127 31 -32 -53 33 34 -23
-5 -7 -42 45 -2 -29 17 127
-26 -127 -27 -37 69 12 25 -71
26 24 -127 -94 -21 45 -25 -6
-22 -127 19 -15 -30 -8 -50 48
22 75 29 127 105 34 39 3
100 -70 -31 -105 127 -21 -20 0
-20 127 -20 -21 15 1 -16 116
-18 -28 127 -70 16 19 10 -11
-12 36 -90 -42 -20 32 127 33
127 -75 52 -23 33 -41 52 -79
-42 127 -20 74 -41 38 -30 0
64 -36 127 -118 97 -41 -37 -44
-26 -82 -51 68 18 50 8 127
-104 -127 -19 102 -7 -32 65 112
-127 17 56 -87 -68 -5 -62 51
-30 -12 22 127 12 61 13 -40
10 -39 -127 -18 31 40 -61 -41
-81 -18 42 -6 -63 -55 -127 -116
42 43 81 127 6 -76 29 -45
-16 14 36 -109 48 -25 49 -127
127 0 83 72 1 9 -20 67
-123 94 -27 -18 -127 -3 -33 13
59 -110 12 127 -46 -82 -51 -103
38 -127 -14 -97 24 -22 -7 -42
55 -50 33 -127 -12 35 -52 3
30 127 17 33 19 14 -14 54

model/depthwise_conv2d_1/depthwise1 i1 [1, 3, 3, 8]
00000000: fc2b 20e9 f676 ccc3 d8fb b8ff 7f26 f4b1
00000010: e90d 0b2d 0300 0dff 427f 7fd2 4819 9e81
00000020: cf66 97e4 7ece 008d 8174 e1d8 0916 6ab7
00000030: 6d44 19c5 f8fb 81ce ff56 20c8 c681 1fe3
00000040: 9622 e781 d5a0 1212
-4 43 32 -23 -10 118 -52 -61
-40 -5 -72 -1 127 38 -12 -79
-23 13 11 45 3 0 13 -1
66 127 127 -46 72 25 -98 -127
-49 102 -105 -28 126 -50 0 -115
-127 116 -31 -40 9 22 106 -73
109 68 25 -59 -8 -5 -127 -50
-1 86 32 -56 -58 -127 31 -29
-106 34 -25 -127 -43 -96 18 18

model/conv2d/Conv2D i1 [8, 1, 1, 3]
00000000: d208 7f81 dfb8 f381 f6d7 7ff1 7f68 0935
00000010: 81f7 fbc0 7fd7 81d9
-46 8 127 -127 -33 -72 -13 -127
-10 -41 127 -15 127 104 9 53
-127 -9 -5 -64 127 -41 -127 -39

model/depthwise_conv2d/depthwise1 i1 [1, 3, 3, 3]
00000000: 24d6 4300 4850 e7de d4e1 817f 0c0d f8fe
00000010: 2632 7f00 1254 02e6 0fe5 04
36 -42 67 0 72 80 -25 -34
-44 -31 -127 127 12 13 -8 -2
38 50 127 0 18 84 2 -26
15 -27 4
