src/models/mnv2/mobilenetv2_wino.tflite (tflite, 638744 bytes, 53 tensors)

convolution i1 [3, 1, 1, 3]
000000 0e 81 29 81 34 56 6a cb 7f
       14 -127 41 -127 52 86 106 -53 127

depthwise i1 [1, 3, 3, 3]
000000 fa d3 ff ce ff fd 7f 7f 03 07 d8 cd ff 2a 7f fb
       -6 -45 -1 -50 -1 -3 127 127 3 7 -40 -51 -1 42 127 -5
000010 6b 04 fb 13 02 09 f3 ec f6 cd f7
       107 4 -5 19 2 9 -13 -20 -10 -51 -9

convolution_1 i1 [8, 1, 1, 3]
000000 81 00 eb 2c 81 e9 2a f9 7f 27 ff 7f 1a f2 7f 2b
       -127 0 -21 44 -127 -23 42 -7 127 39 -1 127 26 -14 127 43
000010 7f d2 da 7f 19 17 7f da
       127 -46 -38 127 25 23 127 -38

convolution_2 i1 [48, 1, 1, 8]
000000 f8 05 f7 fb fc 05 fb 00 da 2a 81 c1 dc 07 be fc
       -8 5 -9 -5 -4 5 -5 0 -38 42 -127 -63 -36 7 -66 -4
000010 4a 07 81 c3 de 08 f2 0d ba af 07 06 fd 53 7f 76
       74 7 -127 -61 -34 8 -14 13 -70 -81 7 6 -3 83 127 118
000020 00 00 00 00 00 00 00 00 7f fa e8 f5 fe e4 04 e0
       0 0 0 0 0 0 0 0 127 -6 -24 -11 -2 -28 4 -32
000030 e2 09 7f 3c 24 e2 f3 d4 1e e6 7f 3e 26 e4 27 e2
       -30 9 127 60 36 -30 -13 -44 30 -26 127 62 38 -28 39 -30
000040 82 53 e8 f0 f5 e5 81 c0 07 fb 10 09 05 fd 08 01
       -126 83 -24 -16 -11 -27 -127 -64 7 -5 16 9 5 -3 8 1
000050 b7 0e 81 c3 d9 22 eb 25 7f c0 ee fb fe 17 60 35
       -73 14 -127 -61 -39 34 -21 37 127 -64 -18 -5 -2 23 96 53
000060 81 d0 52 29 11 38 4f 4e 81 09 5f 2c 15 08 f6 03
       -127 -48 82 41 17 56 79 78 -127 9 95 44 21 8 -10 3
000070 08 fc 7f 3e 26 e5 08 df 00 00 00 00 00 00 00 00
       8 -4 127 62 38 -27 8 -33 0 0 0 0 0 0 0 0
000080 81 08 71 35 1b 02 f9 fc 81 15 fd fd fa 11 e3 0c
       -127 8 113 53 27 2 -7 -4 -127 21 -3 -3 -6 17 -29 12
000090 7f fa 8c ca e4 fc 05 00 81 14 12 07 00 0b e5 04
       127 -6 -116 -54 -28 -4 5 0 -127 20 18 7 0 11 -27 4
0000a0 c3 b0 f6 fe fa 50 7f 77 81 07 2d 15 07 12 f8 10
       -61 -80 -10 -2 -6 80 127 119 -127 7 45 21 7 18 -8 16
0000b0 24 ec 7f 3e 26 e1 20 dd f5 12 81 c2 da 14 e3 17
       36 -20 127 62 38 -31 32 -35 -11 18 -127 -62 -38 20 -29 23
0000c0 c1 38 81 c0 db fc a7 e3 00 00 00 00 00 00 00 00
       -63 56 -127 -64 -37 -4 -89 -29 0 0 0 0 0 0 0 0
0000d0 c6 ba e0 f4 f3 55 70 7f 08 51 31 14 11 b6 81 8d
       -58 -70 -32 -12 -13 85 112 127 8 81 49 20 17 -74 -127 -115
0000e0 da ae e7 f8 f5 56 7f 7f 02 ff 00 00 00 00 01 00
       -38 -82 -25 -8 -11 86 127 127 2 -1 0 0 0 0 1 0
0000f0 81 f5 09 04 fd 28 15 32 29 fc 81 c4 de 16 05 21
       -127 -11 9 4 -3 40 21 50 41 -4 -127 -60 -34 22 5 33

depthwise_1 i1 [1, 3, 3, 48]
000000 d0 5c 0b cc 00 e6 1e 1c 13 2c 04 0b 3e e3 f3 00
       -48 92 11 -52 0 -26 30 28 19 44 4 11 62 -29 -13 0
000010 ff d2 06 17 1c fe 23 f4 be 00 ec a6 0b fc ea 1a
       -1 -46 6 23 28 -2 35 -12 -66 0 -20 -90 11 -4 -22 26
000020 f6 fd ee 04 e5 07 2d 07 dc 00 fd 34 04 03 02 e0
       -10 -3 -18 4 -27 7 45 7 -36 0 -3 52 4 3 2 -32
000030 d3 54 4a c3 00 c9 94 71 04 09 05 21 27 f4 d8 00
       -45 84 74 -61 0 -55 -108 113 4 9 5 33 39 -12 -40 0
000040 f3 d1 f4 26 16 15 7f f4 84 00 ba 81 2d 01 c8 f0
       -13 -47 -12 38 22 21 127 -12 -124 0 -70 -127 45 1 -56 -16
000050 01 09 ec 10 08 2a 44 08 d8 00 f5 1d 04 f7 fe fe
       1 9 -20 16 8 42 68 8 -40 0 -11 29 4 -9 -2 -2
000060 fa 8b 55 13 00 fd a3 7f 15 0b eb f5 20 0a ee 00
       -6 -117 85 19 0 -3 -93 127 21 11 -21 -11 32 10 -18 0
000070 08 e9 0d 0c f0 e0 e1 0b eb 00 fd bf 08 00 cd f9
       8 -23 13 12 -16 -32 -31 11 -21 0 -3 -65 8 0 -51 -7
000080 03 02 0f 1e fb fd f1 d9 e7 00 b0 20 fd ff f8 e4
       3 2 15 30 -5 -3 -15 -39 -25 0 -80 32 -3 -1 -8 -28
000090 fd 50 01 52 00 c6 12 fd e9 19 33 02 95 05 11 00
       -3 80 1 82 0 -58 18 -3 -23 25 51 2 -107 5 17 0
0000a0 fa 33 f0 d9 f0 ae d9 f0 16 00 23 22 c1 ff 11 fd
       -6 51 -16 -39 -16 -82 -39 -16 22 0 35 34 -63 -1 17 -3
0000b0 05 e5 d9 d0 de 01 cf ee 39 00 f4 b8 f1 0e f2 eb
       5 -27 -39 -48 -34 1 -49 -18 57 0 -12 -72 -15 14 -14 -21
0000c0 59 36 2d 7c 00 f5 b3 e2 81 68 7f 7f 81 81 7f 00
       89 54 45 124 0 -11 -77 -30 -127 104 127 127 -127 -127 127 0
0000d0 81 7f 81 81 81 3c 8f 7f 7f 01 7f 21 81 0c 7f 86
       -127 127 -127 -127 -127 60 -113 127 127 1 127 33 -127 12 127 -122
0000e0 13 9f 93 7f 40 7f 81 a6 7f 00 eb ba 81 81 99 81
       19 -97 -109 127 64 127 -127 -90 127 0 -21 -70 -127 -127 -103 -127
0000f0 3d b9 2d 81 00 f2 81 b9 c4 07 00 d2 d0 b7 00 00
       61 -71 45 -127 0 -14 -127 -71 -60 7 0 -46 -48 -73 0 0

convolution_3 i1 [16, 1, 1, 48]
000000 00 12 0c 36 00 0f f5 e2 dd ff 37 26 29 7f df 00
       0 18 12 54 0 15 -11 -30 -35 -1 55 38 41 127 -33 0
000010 3e d3 1b ee aa e8 e4 e8 e3 00 e6 2c ed 00 fa ec
       62 -45 27 -18 -86 -24 -28 -24 -29 0 -26 44 -19 0 -6 -20
000020 00 58 b6 0c 00 cd 29 cf bc 00 26 31 d2 66 9f 6a
       0 88 -74 12 0 -51 41 -49 -68 0 38 49 -46 102 -97 106
000030 00 30 ac 97 00 fc c5 4c de fe 01 03 eb c6 d1 00
       0 48 -84 -105 0 -4 -59 76 -34 -2 1 3 -21 -58 -47 0
000040 28 5d 4b 09 30 23 ff 0d 3e 00 15 3b 05 00 13 fb
       40 93 75 9 48 35 -1 13 62 0 21 59 5 0 19 -5
000050 00 62 48 91 00 81 a7 ee 23 00 d4 f5 55 0b ca 1f
       0 98 72 -111 0 -127 -89 -18 35 0 -44 -11 85 11 -54 31
000060 00 07 e9 23 00 ee 17 34 35 fd e1 0d f2 06 dd 00
       0 7 -23 35 0 -18 23 52 53 -3 -31 13 -14 6 -35 0
000070 35 e6 7f 4f cb cb 18 d3 27 00 11 36 07 00 6b 47
       53 -26 127 79 -53 -53 24 -45 39 0 17 54 7 0 107 71
000080 00 d1 f4 ff 00 cb e2 52 03 00 00 59 d3 11 2e 4c
       0 -47 -12 -1 0 -53 -30 82 3 0 0 89 -45 17 46 76
000090 00 fd 1c bd 00 d4 d7 d8 d6 00 fe db 3e fc f6 00
       0 -3 28 -67 0 -44 -41 -40 -42 0 -2 -37 62 -4 -10 0
0000a0 b3 f2 f1 d1 21 0d cd ec fa 00 bb f9 7f 00 df f1
       -77 -14 -15 -47 33 13 -51 -20 -6 0 -69 -7 127 0 -33 -15
0000b0 00 fe 06 35 00 f8 c3 0b e8 00 fb 79 df f5 0b ea
       0 -2 6 53 0 -8 -61 11 -24 0 -5 121 -33 -11 11 -22
0000c0 00 37 11 13 00 f5 f3 d5 d5 02 ad d4 11 ce f8 00
       0 55 17 19 0 -11 -13 -43 -43 2 -83 -44 17 -50 -8 0
0000d0 2f a0 ca 6b ea 43 d9 c2 8e 00 f7 13 e4 00 48 11
       47 -96 -54 107 -22 67 -39 -62 -114 0 -9 19 -28 0 72 17
0000e0 00 7f f7 0e 00 cb 03 6c f1 00 43 9a 22 2f f6 be
       0 127 -9 14 0 -53 3 108 -15 0 67 -102 34 47 -10 -66
0000f0 00 06 50 c1 00 ce ec 14 f5 02 d1 00 db 49 c5 00
       0 6 80 -63 0 -50 -20 20 -11 2 -47 0 -37 73 -59 0

convolution_4 i1 [96, 1, 1, 16]
000000 c3 7f c4 01 0d df 4b 02 23 89 13 47 a7 d1 39 63
       -61 127 -60 1 13 -33 75 2 35 -119 19 71 -89 -47 57 99
000010 2b 39 81 0f ed ed e2 f2 ea e6 22 f6 d2 34 3c 3c
       43 57 -127 15 -19 -19 -30 -14 -22 -26 34 -10 -46 52 60 60
000020 51 18 1d e5 2e c9 13 fe f2 ef 7f f6 16 36 14 cb
       81 24 29 -27 46 -55 19 -2 -14 -17 127 -10 22 54 20 -53
000030 eb 73 fa 4e 0a 11 de 81 06 fb b8 16 4d 6f f7 e5
       -21 115 -6 78 10 17 -34 -127 6 -5 -72 22 77 111 -9 -27
000040 dc 7f 35 0c e8 49 10 d0 5e 1e c9 cc 63 f4 48 de
       -36 127 53 12 -24 73 16 -48 94 30 -55 -52 99 -12 72 -34
000050 00 00 00 00 00 00 00 00 00 00 00 00 00 00 00 00
       0 0 0 0 0 0 0 0 0 0 0 0 0 0 0 0
000060 fa d4 2f 22 19 fe 48 ba 7f 4d 29 ec fc a1 a5 8e
       -6 -44 47 34 25 -2 72 -70 127 77 41 -20 -4 -95 -91 -114
000070 d8 1c f3 fb 53 1f 7f f2 40 11 a8 fe 1f 00 f3 0a
       -40 28 -13 -5 83 31 127 -14 64 17 -88 -2 31 0 -13 10
000080 3b c1 b7 fa 20 4a 8a a2 ab 9c ef 7f 4e 45 dc ea
       59 -63 -73 -6 32 74 -118 -94 -85 -100 -17 127 78 69 -36 -22
000090 f4 02 14 3b ce 4b b4 e9 38 7f 0d 2e 2a fc 2e 0d
       -12 2 20 59 -50 75 -76 -23 56 127 13 46 42 -4 46 13
0000a0 00 00 00 00 00 00 00 00 00 00 00 00 00 00 00 00
       0 0 0 0 0 0 0 0 0 0 0 0 0 0 0 0
0000b0 06 ff 7f 36 ae 38 fa d9 16 05 e2 4e 02 08 ff 1b
       6 -1 127 54 -82 56 -6 -39 22 5 -30 78 2 8 -1 27
0000c0 b7 43 0d 23 3f 0c 4c d1 9c e5 f6 2e 81 f5 df de
       -73 67 13 35 63 12 76 -47 -100 -27 -10 46 -127 -11 -33 -34
0000d0 27 ae d8 f5 07 3e d8 cd 28 e9 07 14 7f d9 20 e6
       39 -82 -40 -11 7 62 -40 -51 40 -23 7 20 127 -39 32 -26
0000e0 67 f6 07 04 52 39 cb 89 10 2c b4 61 a0 0e 49 81
       103 -10 7 4 82 57 -53 -119 16 44 -76 97 -96 14 73 -127
0000f0 eb 1c cf 7f fb 1a 17 b5 ef 04 f5 d8 26 f6 1f 24
       -21 28 -49 127 -5 26 23 -75 -17 4 -11 -40 38 -10 31 36

depthwise_2 i1 [1, 3, 3, 96]
000000 13 44 21 2c d5 00 22 10 e7 b3 00 f8 eb 81 2c ef
       19 68 33 44 -43 0 34 16 -25 -77 0 -8 -21 -127 44 -17
000010 a5 9d 15 23 02 db e3 d4 98 7f 9e 00 e7 8c f2 97
       -91 -99 21 35 2 -37 -29 -44 -104 127 -98 0 -25 -116 -14 -105
000020 fb 0a a7 ff 0e dd 0a 9c ac fa 67 f4 00 5b 08 00
       -5 10 -89 -1 14 -35 10 -100 -84 -6 103 -12 0 91 8 0
000030 8a 23 18 53 00 fa 14 f4 f3 e9 b9 dd ce f3 e7 30
       -118 35 24 83 0 -6 20 -12 -13 -23 -71 -35 -50 -13 -25 48
000040 00 e6 29 d1 01 5e fc f0 00 00 07 0e 59 00 39 05
       0 -26 41 -47 1 94 -4 -16 0 0 7 14 89 0 57 5
000050 7e 1e d3 fd 3d 9f 0a 46 e8 35 4c 66 dc 00 1e 00
       126 30 -45 -3 61 -97 10 70 -24 53 76 102 -36 0 30 0
000060 59 07 7a 67 de 00 0f d8 f7 81 00 7c 51 d7 20 e9
       89 7 122 103 -34 0 15 -40 -9 -127 0 124 81 -41 32 -23
000070 36 92 4b 5c 0c aa bd e2 de a7 17 00 e4 34 1b 94
       54 -110 75 92 12 -86 -67 -30 -34 -89 23 0 -28 52 27 -108
000080 27 7f aa ff f2 bc cd 9e ae e7 01 2b 00 42 01 00
       39 127 -86 -1 -14 -68 -51 -98 -82 -25 1 43 0 66 1 0
000090 84 03 e5 2b 00 9c f5 49 87 70 bb 4a 49 56 d5 6a
       -124 3 -27 43 0 -100 -11 73 -121 112 -69 74 73 86 -43 106
0000a0 00 07 bf 02 57 55 6e ba 00 00 db f6 e5 00 00 6a
       0 7 -65 2 87 85 110 -70 0 0 -37 -10 -27 0 0 106
0000b0 7f b4 af cc a8 b9 d1 f3 a9 73 d3 a0 d8 00 03 d9
       127 -76 -81 -52 -88 -71 -47 -13 -87 115 -45 -96 -40 0 3 -39
0000c0 0f 81 d8 aa 3b 00 d0 01 e9 c0 00 01 e6 2b dc e3
       15 -127 -40 -86 59 0 -48 1 -23 -64 0 1 -26 43 -36 -29
0000d0 53 ba 01 07 f2 86 4b 3e fb 1b 35 00 ea 3d 0c 81
       83 -70 1 7 -14 -122 75 62 -5 27 53 0 -22 61 12 -127
0000e0 03 5e 30 ff fa df 33 92 3d 05 b7 e9 00 bf 11 00
       3 94 48 -1 -6 -33 51 -110 61 5 -73 -23 0 -65 17 0
0000f0 f7 dd f3 e9 00 51 f3 7f af 5d 6b d8 ed e1 9d ef
       -9 -35 -13 -23 0 81 -13 127 -81 93 107 -40 -19 -31 -99 -17

convolution_5 i1 [16, 1, 1, 96]
000000 f1 f1 02 cd e3 00 02 8d 0a fe 00 19 2e f2 3b 33
       -15 -15 2 -51 -29 0 2 -115 10 -2 0 25 46 -14 59 51
000010 4e 33 da 1f 0b 43 48 fb c0 58 23 00 e4 0f f2 56
       78 51 -38 31 11 67 72 -5 -64 88 35 0 -28 15 -14 86
000020 c5 ae e4 00 1d 6b c9 fb ef bf 0c e7 00 23 b7 00
       -59 -82 -28 0 29 107 -55 -5 -17 -65 12 -25 0 35 -73 0
000030 3b 78 14 06 00 0b f8 da 81 e3 47 ae d9 00 fe 58
       59 120 20 6 0 11 -8 -38 -127 -29 71 -82 -39 0 -2 88
000040 00 55 a4 f0 59 fe fb 29 00 00 03 e8 fe 00 6e 13
       0 85 -92 -16 89 -2 -5 41 0 0 3 -24 -2 0 110 19
000050 1a 92 22 40 e4 43 01 00 f1 f8 5a d0 0e 00 01 0d
       26 -110 34 64 -28 67 1 0 -15 -8 90 -48 14 0 1 13
000060 27 be 12 86 c4 00 e0 6d fc 55 00 5b bb 64 0c 3f
       39 -66 18 -122 -60 0 -32 109 -4 85 0 91 -69 100 12 63
000070 17 39 17 2e e1 f3 9d 06 1b 0a d2 00 e1 13 ea 19
       23 57 23 46 -31 -13 -99 6 27 10 -46 0 -31 19 -22 25
000080 38 21 44 00 e4 da 21 e6 d0 35 d0 a6 00 35 d1 00
       56 33 68 0 -28 -38 33 -26 -48 53 -48 -90 0 53 -47 0
000090 06 e5 c9 81 00 25 24 e3 f6 13 e5 34 26 00 00 e7
       6 -27 -55 -127 0 37 36 -29 -10 19 -27 52 38 0 0 -25
0000a0 00 2f 2f 99 aa ff 4c f1 00 00 da c9 16 00 e0 ee
       0 47 47 -103 -86 -1 76 -15 0 0 -38 -55 22 0 -32 -18
0000b0 eb b5 0b 04 c6 29 28 fa 09 e2 e5 b8 23 00 0d 16
       -21 -75 11 4 -58 41 40 -6 9 -30 -27 -72 35 0 13 22
0000c0 a7 5e 0b 47 ef 00 ac 0f f7 c8 00 fe 52 ef e1 2e
       -89 94 11 71 -17 0 -84 15 -9 -56 0 -2 82 -17 -31 46
0000d0 01 16 93 3d 0f 3f 35 19 f7 f0 35 00 f0 a4 a4 f0
       1 22 -109 61 15 63 53 25 -9 -16 53 0 -16 -92 -92 -16
0000e0 ef 35 ee 00 1e c6 ed 19 15 12 0c 3b 00 5b f6 00
       -17 53 -18 0 30 -58 -19 25 21 18 12 59 0 91 -10 0
0000f0 ed 1d f9 7f 00 d6 f8 cb 36 05 16 2d e8 00 01 d4
       -19 29 -7 127 0 -42 -8 -53 54 5 22 45 -24 0 1 -44

convolution_6 i1 [96, 1, 1, 16]
000000 ab 12 05 d6 a5 df e6 24 5b 7f bc 70 9e 2c 4a 6a
       -85 18 5 -42 -91 -33 -26 36 91 127 -68 112 -98 44 74 106
000010 33 d4 0b 01 26 7f 0f af 6b 12 f6 28 00 0f 3d 33
       51 -44 11 1 38 127 15 -81 107 18 -10 40 0 15 61 51
000020 00 00 00 00 00 00 00 00 00 00 00 00 00 00 00 00
       0 0 0 0 0 0 0 0 0 0 0 0 0 0 0 0
000030 1d 34 1b 13 3f bc e9 79 0a 3f c0 28 e5 81 1f 06
       29 52 27 19 63 -68 -23 121 10 63 -64 40 -27 -127 31 6
000040 fb 7f a3 44 4e 7f 22 d7 d4 14 bb f8 8a f3 02 8e
       -5 127 -93 68 78 127 34 -41 -44 20 -69 -8 -118 -13 2 -114
000050 44 ff 34 08 08 12 81 8c fb ea 33 20 dc ec 37 13
       68 -1 52 8 8 18 -127 -116 -5 -22 51 32 -36 -20 55 19
000060 b9 fc 11 f7 47 26 00 d6 21 7f e3 0f da da a6 d4
       -71 -4 17 -9 71 38 0 -42 33 127 -29 15 -38 -38 -90 -44
000070 09 f4 b2 59 f9 ce 25 ab 2b 2a 05 32 20 7f d6 1c
       9 -12 -78 89 -7 -50 37 -85 43 42 5 50 32 127 -42 28
000080 00 00 00 00 00 00 00 00 00 00 00 00 00 00 00 00
       0 0 0 0 0 0 0 0 0 0 0 0 0 0 0 0
000090 1f f8 ff f6 71 1c d7 f7 fe f1 12 6d 0e 7c be 81
       31 -8 -1 -10 113 28 -41 -9 -2 -15 18 109 14 124 -66 -127
0000a0 f2 f4 30 1f 15 e7 81 c2 b2 03 18 11 c3 ec 22 15
       -14 -12 48 31 21 -25 -127 -62 -78 3 24 17 -61 -20 34 21
0000b0 e3 e4 27 7f f4 1d 01 fa d8 2c db 39 00 aa 5a 12
       -29 -28 39 127 -12 29 1 -6 -40 44 -37 57 0 -86 90 18
0000c0 5c 4f b1 0b f8 30 35 c2 d6 05 81 17 98 32 11 94
       92 79 -79 11 -8 48 53 -62 -42 5 -127 23 -104 50 17 -108
0000d0 f3 ee e0 2e 76 c6 06 a5 7f d4 3b 53 a5 e8 f1 8b
       -13 -18 -32 46 118 -58 6 -91 127 -44 59 83 -91 -24 -15 -117
0000e0 fa ec 9f da 34 56 42 2a c5 8c f1 11 6c 32 81 45
       -6 -20 -97 -38 52 86 66 42 -59 -116 -15 17 108 50 -127 69
0000f0 fc 04 01 03 03 fc 01 06 00 04 ff fc 04 fc ff 03
       -4 4 1 3 3 -4 1 6 0 4 -1 -4 4 -4 -1 3

depthwise_3 i1 [1, 3, 3, 96]
000000 ef f8 00 99 7f c9 1d fa 00 cc 00 f9 fc fa 81 05
       -17 -8 0 -103 127 -55 29 -6 0 -52 0 -7 -4 -6 -127 5
000010 00 e7 3a 00 cc 15 f7 1f eb fc 28 09 00 0f f6 7c
       0 -25 58 0 -52 21 -9 31 -21 -4 40 9 0 15 -10 124
000020 00 ef ce dd 00 d6 f3 f6 00 e9 00 ea ee d7 10 d3
       0 -17 -50 -35 0 -42 -13 -10 0 -23 0 -22 -18 -41 16 -45
000030 05 fb f9 ff 00 17 00 a7 e5 cf d1 b7 00 34 f6 f8
       5 -5 -7 -1 0 23 0 -89 -27 -49 -47 -73 0 52 -10 -8
000040 e2 34 f7 fd a3 19 19 f3 09 01 7f 81 00 23 00 ed
       -30 52 -9 -3 -93 25 25 -13 9 1 127 -127 0 35 0 -19
000050 fc e3 04 d5 fc 04 61 e3 ff 1b f0 2c e4 fa fd 73
       -4 -29 4 -43 -4 4 97 -29 -1 27 -16 44 -28 -6 -3 115
000060 2a fc 00 01 ed bc 6d 0a 00 81 1b d8 f6 19 c7 06
       42 -4 0 1 -19 -68 109 10 0 -127 27 -40 -10 25 -57 6
000070 00 b6 19 00 24 2e d2 7f 20 11 12 7f 00 4b ed eb
       0 -74 25 0 36 46 -46 127 32 17 18 127 0 75 -19 -21
000080 00 19 f5 fb 00 f8 d2 ce 00 00 00 e9 d8 dd 31 93
       0 25 -11 -5 0 -8 -46 -50 0 0 0 -23 -40 -35 49 -109
000090 e6 dc 18 04 00 04 00 dc e1 c7 ad 00 00 7f ff f8
       -26 -36 24 4 0 4 0 -36 -31 -57 -83 0 0 127 -1 -8
0000a0 31 f4 27 46 81 f2 ad f0 ee ec 7b ca fc e7 00 17
       49 -12 39 70 -127 -14 -83 -16 -18 -20 123 -54 -4 -25 0 23
0000b0 f9 07 fb 99 2a 2b 29 fb c2 38 00 da f2 e0 0d 33
       -7 7 -5 -103 42 43 41 -5 -62 56 0 -38 -14 -32 13 51
0000c0 f3 f4 00 7d d9 c8 e7 fd 00 01 02 08 f4 f1 97 0f
       -13 -12 0 125 -39 -56 -25 -3 0 1 2 8 -12 -15 -105 15
0000d0 00 e4 da 00 7f fb 13 19 ed f7 0f ec 00 fa 86 dc
       0 -28 -38 0 127 -5 19 25 -19 -9 15 -20 0 -6 -122 -36
0000e0 00 0a 26 0f 00 21 c4 02 00 ec 00 e6 e5 df 09 e3
       0 10 38 15 0 33 -60 2 0 -20 0 -26 -27 -33 9 -29
0000f0 05 fb fa 02 00 ee 00 b6 02 ce eb 03 00 32 fb fb
       5 -5 -6 2 0 -18 0 -74 2 -50 -21 3 0 50 -5 -5

convolution_7 i1 [24, 1, 1, 96]
000000 af 19 00 ff 01 d1 0a c9 00 db 02 f9 1a e8 04 00
       -81 25 0 -1 1 -47 10 -55 0 -37 2 -7 26 -24 4 0
000010 00 5c 39 00 df 24 07 fd 16 56 4e 77 00 2f 30 f8
       0 92 57 0 -33 36 7 -3 22 86 78 119 0 47 48 -8
000020 00 00 23 ec 00 48 72 0a 00 98 00 e9 25 01 d5 25
       0 0 35 -20 0 72 114 10 0 -104 0 -23 37 1 -43 37
000030 0d 18 a4 00 00 00 00 e4 ef 04 ed f6 00 21 4e 00
       13 24 -92 0 0 0 0 -28 -17 4 -19 -10 0 33 78 0
000040 fd f3 f7 14 ba e9 01 43 19 89 ee 68 00 0b 00 25
       -3 -13 -9 20 -70 -23 1 67 25 -119 -18 104 0 11 0 37
000050 2d 17 36 b7 0f d1 9d 00 0c 36 d6 00 d2 81 07 dc
       45 23 54 -73 15 -47 -99 0 12 54 -42 0 -46 -127 7 -36
000060 e5 03 00 00 00 af f8 d1 00 6b d9 1c 0f bf 81 00
       -27 3 0 0 0 -81 -8 -47 0 107 -39 28 15 -65 -127 0
000070 00 ff 4b 00 00 60 c1 05 10 dc 07 e7 00 f3 ef 2e
       0 -1 75 0 0 96 -63 5 16 -36 7 -25 0 -13 -17 46
000080 00 00 de de 00 1f ef ea 00 16 00 b6 b6 fd 06 2a
       0 0 -34 -34 0 31 -17 -22 0 22 0 -74 -74 -3 6 42
000090 b0 28 bb 00 00 00 00 c6 65 0b 98 01 00 24 10 00
       -80 40 -69 0 0 0 0 -58 101 11 -104 1 0 36 16 0
0000a0 13 e0 a1 13 1f e7 f0 1c 1f c8 18 cd 00 30 00 c4
       19 -32 -95 19 31 -25 -16 28 31 -56 24 -51 0 48 0 -60
0000b0 ce e3 e0 34 f8 2b 1b 00 ca 11 c7 00 13 f9 e3 a9
       -50 -29 -32 52 -8 43 27 0 -54 17 -57 0 19 -7 -29 -87
0000c0 12 31 00 01 00 f3 f3 cc 00 19 e1 7f 4e 06 e3 00
       18 49 0 1 0 -13 -13 -52 0 25 -31 127 78 6 -29 0
0000d0 00 18 7a 00 1a d9 43 ec 2a 3b f5 02 00 14 db cf
       0 24 122 0 26 -39 67 -20 42 59 -11 2 0 20 -37 -49
0000e0 00 00 47 63 00 57 b7 16 00 13 00 35 e8 f7 bc 44
       0 0 71 99 0 87 -73 22 0 19 0 53 -24 -9 -68 68
0000f0 06 0b 4b 00 00 00 00 e4 f8 17 fd 07 00 e9 e0 00
       6 11 75 0 0 0 0 -28 -8 23 -3 7 0 -23 -32 0

convolution_8 i1 [144, 1, 1, 24]
000000 dd 17 aa 2b a8 44 0c 01 dd a3 bf b8 fd f4 81 72
       -35 23 -86 43 -88 68 12 1 -35 -93 -65 -72 -3 -12 -127 114
000010 09 ec c1 a0 30 45 2e ab df 7f 13 02 45 df c5 f9
       9 -20 -63 -96 48 69 46 -85 -33 127 19 2 69 -33 -59 -7
000020 e9 ab f9 0b f1 fa 23 e0 1a 0b ec 26 ff cf 2d af
       -23 -85 -7 11 -15 -6 35 -32 26 11 -20 38 -1 -49 45 -81
000030 e1 7f 0d fa 22 2a 18 c3 26 45 9d 17 2b 2e f2 c7
       -31 127 13 -6 34 42 24 -61 38 69 -99 23 43 46 -14 -57
000040 10 f4 0a 22 de 40 22 fe d4 32 0d 34 09 9e 00 fb
       16 -12 10 34 -34 64 34 -2 -44 50 13 52 9 -98 0 -5
000050 ea 15 ff 3c c4 87 29 4d ea fd 2f e0 fb 81 ad b1
       -22 21 -1 60 -60 -121 41 77 -22 -3 47 -32 -5 -127 -83 -79
000060 ce d3 e2 44 15 b3 4d 43 f8 f8 c5 2d 0e 3a 3e d6
       -50 -45 -30 68 21 -77 77 67 -8 -8 -59 45 14 58 62 -42
000070 81 ce 0f 2a 12 83 d4 e5 fa 3f 20 13 1d c7 d3 e7
       -127 -50 15 42 18 -125 -44 -27 -6 63 32 19 29 -57 -45 -25
000080 af 05 08 e1 c5 e9 08 ed c2 f8 81 1b 0c 3b ac f9
       -81 5 8 -31 -59 -23 8 -19 -62 -8 -127 27 12 59 -84 -7
000090 00 01 ff fb ff ff 00 fc 00 01 01 fd 01 ff fd 01
       0 1 -1 -5 -1 -1 0 -4 0 1 1 -3 1 -1 -3 1
0000a0 05 03 fd fa 00 01 02 fd ce 3f 58 22 6b 1b ff e1
       5 3 -3 -6 0 1 2 -3 -50 63 88 34 107 27 -1 -31
0000b0 d2 ab d6 e7 ea 00 d5 c7 c7 c0 c3 7f fe 54 9e e2
       -46 -85 -42 -25 -22 0 -43 -57 -57 -64 -61 127 -2 84 -98 -30
0000c0 00 ff 00 00 00 00 00 00 00 00 00 00 ff 00 00 00
       0 -1 0 0 0 0 0 0 0 0 0 0 -1 0 0 0
0000d0 00 00 00 00 01 00 00 00 f5 48 e5 7b 31 e5 f7 d1
       0 0 0 0 1 0 0 0 -11 72 -27 123 49 -27 -9 -47
0000e0 25 0e 1b 18 4c b1 08 03 81 c1 4f 56 e7 35 42 f3
       37 14 27 24 76 -79 8 3 -127 -63 79 86 -25 53 66 -13
0000f0 00 00 00 00 00 00 00 00 00 00 00 00 00 00 00 00
       0 0 0 0 0 0 0 0 0 0 0 0 0 0 0 0

depthwise_4 i1 [1, 3, 3, 144]
000000 e0 08 5d f6 4e 04 fb 09 01 ee 00 ff 00 b6 00 00
       -32 8 93 -10 78 4 -5 9 1 -18 0 -1 0 -74 0 0
000010 d0 00 44 f5 00 00 00 00 24 03 00 3a ff f7 00 1e
       -48 0 68 -11 0 0 0 0 36 3 0 58 -1 -9 0 30
000020 00 00 08 9a 00 e9 00 52 b1 38 00 fe 00 00 00 f1
       0 0 8 -102 0 -23 0 82 -79 56 0 -2 0 0 0 -15
000030 ab 21 c4 2c 00 f1 00 d0 f6 0a 00 00 00 0f 00 e6
       -85 33 -60 44 0 -15 0 -48 -10 10 0 0 0 15 0 -26
000040 15 d8 00 ff b4 29 00 fe 00 03 40 ff 71 00 02 1e
       21 -40 0 -1 -76 41 0 -2 0 3 64 -1 113 0 2 30
000050 b3 00 00 74 81 00 34 16 00 00 55 81 00 ee 38 00
       -77 0 0 116 -127 0 52 22 0 0 85 -127 0 -18 56 0
000060 00 00 00 dc e4 00 00 13 00 ec 00 01 00 00 00 00
       0 0 0 -36 -28 0 0 19 0 -20 0 1 0 0 0 0
000070 00 00 29 cd 00 00 89 d4 ef 00 fd 15 a3 00 0c da
       0 0 41 -51 0 0 -119 -44 -17 0 -3 21 -93 0 12 -38
000080 00 b4 00 ef 68 ea 00 34 54 00 00 25 00 bf 54 00
       0 -76 0 -17 104 -22 0 52 84 0 0 37 0 -65 84 0
000090 be 3f dd a4 45 bd 07 89 02 de 00 00 00 eb 00 00
       -66 63 -35 -92 69 -67 7 -119 2 -34 0 0 0 -21 0 0
0000a0 ec 00 1f 7f 00 ff 00 00 df cd 00 7f 00 be 00 6e
       -20 0 31 127 0 -1 0 0 -33 -51 0 127 0 -66 0 110
0000b0 00 00 18 ff 00 1e 00 b5 16 2c 00 7f 00 00 00 fa
       0 0 24 -1 0 30 0 -75 22 44 0 127 0 0 0 -6
0000c0 c0 23 53 7f 00 7f 00 7f a6 13 00 00 00 cc 00 ef
       -64 35 83 127 0 127 0 127 -90 19 0 0 0 -52 0 -17
0000d0 02 81 00 00 a3 a2 00 1a 00 03 73 ff 5d 00 7f fc
       2 -127 0 0 -93 -94 0 26 0 3 115 -1 93 0 127 -4
0000e0 ec 00 00 ba fd 00 27 23 00 00 d3 c8 00 d0 df 00
       -20 0 0 -70 -3 0 39 35 0 0 -45 -56 0 -48 -33 0
0000f0 00 00 00 81 81 00 f5 7f 00 81 00 00 01 00 00 00
       0 0 0 -127 -127 0 -11 127 0 -127 0 0 1 0 0 0

convolution_9 i1 [24, 1, 1, 144]
000000 0d 4f 46 32 d6 06 00 39 00 3b 00 00 00 2c 00 00
       13 79 70 50 -42 6 0 57 0 59 0 0 0 44 0 0
000010 00 00 b5 fc 00 00 00 00 d8 50 00 00 00 01 00 01
       0 0 -75 -4 0 0 0 0 -40 80 0 0 0 1 0 1
000020 00 00 00 ec 00 fd 00 dd 22 f0 00 00 00 00 00 61
       0 0 0 -20 0 -3 0 -35 34 -16 0 0 0 0 0 97
000030 bc 02 f5 e4 00 b3 00 00 3c 1b 00 00 00 23 00 4c
       -68 2 -11 -28 0 -77 0 0 60 27 0 0 0 35 0 76
000040 10 7f 00 00 00 15 00 f6 00 00 ff 00 f6 00 df 23
       16 127 0 0 0 21 0 -10 0 0 -1 0 -10 0 -33 35
000050 16 00 00 3e 08 00 ed 04 00 00 01 c1 00 2c ef 00
       22 0 0 62 8 0 -19 4 0 0 1 -63 0 44 -17 0
000060 00 00 00 33 2b 00 34 01 00 00 00 00 00 00 00 00
       0 0 0 51 43 0 52 1 0 0 0 0 0 0 0 0
000070 00 00 fa 03 00 00 17 fd 00 00 39 00 00 00 eb c6
       0 0 -6 3 0 0 23 -3 0 0 57 0 0 0 -21 -58
000080 00 02 00 00 18 fa 00 0d ff 00 00 e0 00 f7 a1 00
       0 2 0 0 24 -6 0 13 -1 0 0 -32 0 -9 -95 0
000090 15 5b 81 f5 c2 00 00 f7 00 e3 00 00 00 27 00 00
       21 91 -127 -11 -62 0 0 -9 0 -29 0 0 0 39 0 0
0000a0 ff 00 e7 95 00 00 00 00 02 e8 00 ff 00 00 00 00
       -1 0 -25 -107 0 0 0 0 2 -24 0 -1 0 0 0 0
0000b0 00 00 00 47 00 d8 00 0e 48 11 00 ff 00 00 00 59
       0 0 0 71 0 -40 0 14 72 17 0 -1 0 0 0 89
0000c0 fb c1 48 aa 00 ec 00 00 f4 0f 00 00 00 38 00 05
       -5 -63 72 -86 0 -20 0 0 -12 15 0 0 0 56 0 5
0000d0 68 2a 00 00 00 09 00 b0 00 00 fa 00 f1 00 bf 09
       104 42 0 0 0 9 0 -80 0 0 -6 0 -15 0 -65 9
0000e0 b2 00 00 ff 1c 00 7d c0 00 00 f5 f0 00 f8 60 00
       -78 0 0 -1 28 0 125 -64 0 0 -11 -16 0 -8 96 0
0000f0 00 00 00 83 f1 00 da ff 00 03 00 00 00 00 00 00
       0 0 0 -125 -15 0 -38 -1 0 3 0 0 0 0 0 0

convolution_10 i1 [144, 1, 1, 24]
000000 00 00 00 00 00 00 00 00 00 00 00 00 00 00 00 00
       0 0 0 0 0 0 0 0 0 0 0 0 0 0 0 0
000010 00 00 00 00 00 00 00 00 00 00 00 00 00 00 00 00
       0 0 0 0 0 0 0 0 0 0 0 0 0 0 0 0
000020 00 00 00 00 00 00 00 00 00 00 00 00 00 00 00 00
       0 0 0 0 0 0 0 0 0 0 0 0 0 0 0 0
000030 ff fe fb fe fe 00 fd fc 03 00 ff ff 02 01 fe fe
       -1 -2 -5 -2 -2 0 -3 -4 3 0 -1 -1 2 1 -2 -2
000040 01 01 00 04 01 02 fe ff 00 00 00 00 00 00 00 00
       1 1 0 4 1 2 -2 -1 0 0 0 0 0 0 0 0
000050 00 00 00 00 00 00 00 00 00 00 00 00 00 00 00 00
       0 0 0 0 0 0 0 0 0 0 0 0 0 0 0 0
000060 00 00 00 00 00 00 00 00 00 00 00 00 00 00 00 00
       0 0 0 0 0 0 0 0 0 0 0 0 0 0 0 0
000070 00 00 00 00 00 00 00 00 00 00 00 00 00 00 00 00
       0 0 0 0 0 0 0 0 0 0 0 0 0 0 0 0
000080 00 00 00 00 00 00 00 00 00 00 00 00 00 00 00 00
       0 0 0 0 0 0 0 0 0 0 0 0 0 0 0 0
000090 15 a7 f9 c2 b4 44 ce f3 72 b4 ad ef 7f 03 40 c1
       21 -89 -7 -62 -76 68 -50 -13 114 -76 -83 -17 127 3 64 -63
0000a0 2d 20 c8 da fd 53 27 e7 00 00 00 00 00 00 00 00
       45 32 -56 -38 -3 83 39 -25 0 0 0 0 0 0 0 0
0000b0 00 00 00 00 00 00 00 00 00 00 00 00 00 00 00 00
       0 0 0 0 0 0 0 0 0 0 0 0 0 0 0 0
0000c0 c3 f6 e9 02 e7 81 e6 dc f6 e2 d3 c9 9e f8 01 fa
       -61 -10 -23 2 -25 -127 -26 -36 -10 -30 -45 -55 -98 -8 1 -6
0000d0 e3 0d 29 2d 4c eb f0 0d d0 59 f7 7f cd 52 07 ed
       -29 13 41 45 76 -21 -16 13 -48 89 -9 127 -51 82 7 -19
0000e0 f4 4d b0 f2 b9 ba f6 c2 f7 48 eb c9 16 22 f4 50
       -12 77 -80 -14 -71 -70 -10 -62 -9 72 -21 -55 22 34 -12 80
0000f0 00 00 00 00 00 00 00 00 00 00 00 00 00 00 00 00
       0 0 0 0 0 0 0 0 0 0 0 0 0 0 0 0

depthwise_5 i1 [1, 3, 3, 144]
000000 00 00 14 02 00 00 d5 00 7f ad 00 00 00 ff 67 ff
       0 0 20 2 0 0 -43 0 127 -83 0 0 0 -1 103 -1
000010 7f 81 e3 00 00 00 00 00 00 00 00 00 b4 00 88 00
       127 -127 -29 0 0 0 0 0 0 0 0 0 -76 0 -120 0
000020 fe 00 00 7f 00 00 00 c3 d0 00 35 00 68 00 81 00
       -2 0 0 127 0 0 0 -61 -48 0 53 0 104 0 -127 0
000030 00 00 00 00 00 1e 00 22 00 00 1c 00 00 00 00 cd
       0 0 0 0 0 30 0 34 0 0 28 0 0 0 0 -51
000040 00 07 00 00 c7 00 0c 00 72 00 48 00 00 b1 00 1c
       0 7 0 0 -57 0 12 0 114 0 72 0 0 -79 0 28
000050 00 c0 00 00 00 00 02 00 5a 2f 4c ff b2 00 00 5f
       0 -64 0 0 0 0 2 0 90 47 76 -1 -78 0 0 95
000060 00 b3 fe 00 00 d9 00 00 00 00 00 00 00 00 00 00
       0 -77 -2 0 0 -39 0 0 0 0 0 0 0 0 0 0
000070 00 00 b5 d5 00 04 fa 00 e0 00 26 00 b6 2f 00 00
       0 0 -75 -43 0 4 -6 0 -32 0 38 0 -74 47 0 0
000080 00 81 d6 c5 00 00 00 00 00 00 7f 7f 00 2d 00 00
       0 -127 -42 -59 0 0 0 0 0 0 127 127 0 45 0 0
000090 00 00 f0 01 00 00 d3 00 20 1a 00 00 00 fe 5a 00
       0 0 -16 1 0 0 -45 0 32 26 0 0 0 -2 90 0
0000a0 44 f2 7f 00 00 ee 00 00 00 00 00 00 f5 00 23 00
       68 -14 127 0 0 -18 0 0 0 0 0 0 -11 0 35 0
0000b0 a3 00 00 30 00 00 00 ac c7 00 43 00 0b 00 38 00
       -93 0 0 48 0 0 0 -84 -57 0 67 0 11 0 56 0
0000c0 00 00 00 01 00 21 00 7f 00 00 7f 00 00 00 00 a0
       0 0 0 1 0 33 0 127 0 0 127 0 0 0 0 -96
0000d0 00 fc 00 00 c5 00 e6 00 4c 00 ca 00 00 aa 00 fa
       0 -4 0 0 -59 0 -26 0 76 0 -54 0 0 -86 0 -6
0000e0 00 1e 00 00 00 00 fe 00 fc 7f 71 ff 0b 00 00 dd
       0 30 0 0 0 0 -2 0 -4 127 113 -1 11 0 0 -35
0000f0 00 c3 19 00 00 d7 00 00 00 00 00 00 00 cb 00 00
       0 -61 25 0 0 -41 0 0 0 0 0 0 0 -53 0 0

convolution_11 i1 [24, 1, 1, 144]
000000 00 00 00 00 00 00 fb 00 cf e5 00 00 00 00 fe 00
       0 0 0 0 0 0 -5 0 -49 -27 0 0 0 0 -2 0
000010 d8 81 ff 00 00 00 00 00 00 00 00 00 df 00 03 00
       -40 -127 -1 0 0 0 0 0 0 0 0 0 -33 0 3 0
000020 f9 00 00 0d 00 00 00 fc 06 00 f2 00 00 00 f2 00
       -7 0 0 13 0 0 0 -4 6 0 -14 0 0 0 -14 0
000030 00 00 00 00 00 05 00 03 00 00 f4 00 00 00 00 2f
       0 0 0 0 0 5 0 3 0 0 -12 0 0 0 0 47
000040 00 00 00 00 62 00 d6 00 42 00 21 00 00 de 00 00
       0 0 0 0 98 0 -42 0 66 0 33 0 0 -34 0 0
000050 00 0b 00 00 00 00 00 00 d4 fd 10 00 26 00 00 ff
       0 11 0 0 0 0 0 0 -44 -3 16 0 38 0 0 -1
000060 00 01 35 00 00 03 00 00 00 00 00 00 00 3a 00 00
       0 1 53 0 0 3 0 0 0 0 0 0 0 58 0 0
000070 00 00 01 48 00 df d3 00 db 00 55 00 10 41 00 00
       0 0 1 72 0 -33 -45 0 -37 0 85 0 16 65 0 0
000080 00 a7 07 e4 00 00 00 00 00 00 a1 00 00 05 00 00
       0 -89 7 -28 0 0 0 0 0 0 -95 0 0 5 0 0
000090 00 00 00 00 00 00 02 00 f4 3d 00 00 00 00 b9 00
       0 0 0 0 0 0 2 0 -12 61 0 0 0 0 -71 0
0000a0 96 03 fa 00 00 00 00 00 00 00 00 00 27 00 e8 00
       -106 3 -6 0 0 0 0 0 0 0 0 0 39 0 -24 0
0000b0 4c 00 00 b2 00 00 00 a6 e6 00 b5 00 fe 00 4d 00
       76 0 0 -78 0 0 0 -90 -26 0 -75 0 -2 0 77 0
0000c0 00 00 00 00 00 b5 00 f7 00 00 a9 00 00 00 00 24
       0 0 0 0 0 -75 0 -9 0 0 -87 0 0 0 0 36
0000d0 00 00 00 00 97 00 04 00 2b 00 29 00 00 df 00 00
       0 0 0 0 -105 0 4 0 43 0 41 0 0 -33 0 0
0000e0 00 54 00 00 00 00 00 00 04 e7 c7 00 29 00 00 04
       0 84 0 0 0 0 0 0 4 -25 -57 0 41 0 0 4
0000f0 00 ff d8 00 00 00 00 00 00 00 00 00 00 fe 00 00
       0 -1 -40 0 0 0 0 0 0 0 0 0 0 -2 0 0

convolution_12 i1 [144, 1, 1, 24]
000000 00 00 00 00 01 00 00 00 00 00 00 00 01 00 00 01
       0 0 0 0 1 0 0 0 0 0 0 0 1 0 0 1
000010 00 00 00 00 00 01 01 00 00 00 00 00 00 00 00 00
       0 0 0 0 0 1 1 0 0 0 0 0 0 0 0 0
000020 00 00 00 00 00 00 00 00 00 00 00 00 00 00 00 00
       0 0 0 0 0 0 0 0 0 0 0 0 0 0 0 0
000030 50 ec 38 f5 2a 52 24 1a 08 2c fd 1e e6 35 ac 1c
       80 -20 56 -11 42 82 36 26 8 44 -3 30 -26 53 -84 28
000040 de 0d 25 00 d0 35 95 0d 12 31 a7 b3 d5 2a fa 81
       -34 13 37 0 -48 53 -107 13 18 49 -89 -77 -43 42 -6 -127
000050 c9 de ec 05 f7 d7 ba 05 1d e4 2a 14 6b 15 99 01
       -55 -34 -20 5 -9 -41 -70 5 29 -28 42 20 107 21 -103 1
000060 00 00 00 00 00 00 00 00 00 00 00 00 00 00 00 00
       0 0 0 0 0 0 0 0 0 0 0 0 0 0 0 0
000070 00 00 00 00 00 00 00 00 00 00 00 00 00 00 00 00
       0 0 0 0 0 0 0 0 0 0 0 0 0 0 0 0
000080 00 00 00 00 00 00 00 00 00 00 00 00 00 00 00 00
       0 0 0 0 0 0 0 0 0 0 0 0 0 0 0 0
000090 00 00 00 00 00 00 00 00 00 00 00 00 00 00 00 00
       0 0 0 0 0 0 0 0 0 0 0 0 0 0 0 0
0000a0 00 00 00 00 00 00 00 00 05 05 e7 ff fe fe 16 fa
       0 0 0 0 0 0 0 0 5 5 -25 -1 -2 -2 22 -6
0000b0 e4 02 04 26 f0 13 04 fa 0b 05 0a eb 06 02 e8 00
       -28 2 4 38 -16 19 4 -6 11 5 10 -21 6 2 -24 0
0000c0 00 00 00 00 00 00 00 00 00 00 00 00 00 00 00 00
       0 0 0 0 0 0 0 0 0 0 0 0 0 0 0 0
0000d0 00 00 00 00 00 00 00 00 04 0a c5 26 5e f7 2f ad
       0 0 0 0 0 0 0 0 4 10 -59 38 94 -9 47 -83
0000e0 e3 f2 ed 42 17 35 40 10 17 df 25 7f f2 3a 2e 0d
       -29 -14 -19 66 23 53 64 16 23 -33 37 127 -14 58 46 13
0000f0 99 c0 0a 06 fb 1a d9 e5 40 15 17 81 c3 04 01 f8
       -103 -64 10 6 -5 26 -39 -27 64 21 23 -127 -61 4 1 -8

depthwise_6 i1 [1, 3, 3, 144]
000000 ff 00 af 49 00 00 00 e2 00 06 03 00 fc ed 29 00
       -1 0 -81 73 0 0 0 -30 0 6 3 0 -4 -19 41 0
000010 e5 00 06 30 40 00 bf f3 00 12 00 00 f8 f2 aa 00
       -27 0 6 48 64 0 -65 -13 0 18 0 0 -8 -14 -86 0
000020 40 00 19 00 00 00 00 0e 68 00 f9 ac 00 fd 72 7f
       64 0 25 0 0 0 0 14 104 0 -7 -84 0 -3 114 127
000030 01 00 01 00 00 1e f0 00 00 04 d1 00 19 5c c7 0b
       1 0 1 0 0 30 -16 0 0 4 -47 0 25 92 -57 11
000040 ab 04 03 df 00 2e 00 eb 00 37 04 00 00 00 b2 d0
       -85 4 3 -33 0 46 0 -21 0 55 4 0 0 0 -78 -48
000050 00 00 0b f4 00 16 22 00 00 7f 00 67 00 81 fd 1b
       0 0 11 -12 0 22 34 0 0 127 0 103 0 -127 -3 27
000060 00 05 01 10 ec 5b 07 7f 00 3b 00 00 1d 06 bb fe
       0 5 1 16 -20 91 7 127 0 59 0 0 29 6 -69 -2
000070 00 81 1e 09 00 d1 f8 00 00 00 00 00 ed 00 00 00
       0 -127 30 9 0 -47 -8 0 0 0 0 0 -19 0 0 0
000080 03 00 00 31 00 86 00 f8 00 0b 00 7f 00 32 1c 00
       3 0 0 49 0 -122 0 -8 0 11 0 127 0 50 28 0
000090 ff 00 81 7f 00 00 00 0f 00 1c de 00 c4 bf b4 00
       -1 0 -127 127 0 0 0 15 0 28 -34 0 -60 -65 -76 0
0000a0 e2 00 7f 7f ca 00 c3 e5 ff c3 00 00 2a ed b4 00
       -30 0 127 127 -54 0 -61 -27 -1 -61 0 0 42 -19 -76 0
0000b0 f8 00 7f 00 00 00 00 d9 df 00 7f a2 00 01 05 c8
       -8 0 127 0 0 0 0 -39 -33 0 127 -94 0 1 5 -56
0000c0 7f 00 02 00 00 7f 7f 00 00 05 e3 00 de 6d cd 81
       127 0 2 0 0 127 127 0 0 5 -29 0 -34 109 -51 -127
0000d0 cf 52 f5 f5 00 7f 00 e9 00 56 02 00 00 00 82 15
       -49 82 -11 -11 0 127 0 -23 0 86 2 0 0 0 -126 21
0000e0 00 00 7f 3f 00 09 2e 00 00 d8 00 7f 00 8c c3 37
       0 0 127 63 0 9 46 0 0 -40 0 127 0 -116 -61 55
0000f0 00 0b 00 7f d8 7f d2 03 00 7f 00 00 31 df 81 ff
       0 11 0 127 -40 127 -46 3 0 127 0 0 49 -33 -127 -1

convolution_13 i1 [32, 1, 1, 144]
000000 00 00 01 f8 00 00 00 00 00 e9 ec 00 00 f4 f6 00
       0 0 1 -8 0 0 0 0 0 -23 -20 0 0 -12 -10 0
000010 00 00 ff 24 ff 00 de 00 00 23 00 00 83 10 ea 00
       0 0 -1 36 -1 0 -34 0 0 35 0 0 -125 16 -22 0
000020 02 00 d8 00 00 00 00 01 cb 00 00 f8 00 00 09 ff
       2 0 -40 0 0 0 0 1 -53 0 0 -8 0 0 9 -1
000030 d1 00 00 00 00 3a b0 00 00 31 ea 00 f6 01 56 99
       -47 0 0 0 0 58 -80 0 0 49 -22 0 -10 1 86 -103
000040 81 10 2e 05 00 00 00 23 00 d7 00 00 00 00 00 c8
       -127 16 46 5 0 0 0 35 0 -41 0 0 0 0 0 -56
000050 00 00 b6 b7 00 23 c1 00 00 26 00 02 00 68 1c 16
       0 0 -74 -73 0 35 -63 0 0 38 0 2 0 104 28 22
000060 00 00 00 ee 5d 16 eb 00 00 00 00 00 34 64 f6 00
       0 0 0 -18 93 22 -21 0 0 0 0 0 52 100 -10 0
000070 00 00 00 06 00 00 c9 00 00 00 00 00 00 00 00 00
       0 0 0 6 0 0 -55 0 0 0 0 0 0 0 0 0
000080 41 00 00 12 00 d6 00 3e 00 3b 00 cf 00 00 f2 00
       65 0 0 18 0 -42 0 62 0 59 0 -49 0 0 -14 0
000090 00 00 00 0e 00 00 00 00 00 3f 2d 00 00 11 fa 00
       0 0 0 14 0 0 0 0 0 63 45 0 0 17 -6 0
0000a0 00 00 ed aa 0e 00 ea ff 00 23 00 00 0f f2 d0 00
       0 0 -19 -86 14 0 -22 -1 0 35 0 0 15 -14 -48 0
0000b0 0e 00 ba 00 00 00 00 00 33 00 00 f6 00 00 14 01
       14 0 -70 0 0 0 0 0 51 0 0 -10 0 0 20 1
0000c0 b8 00 00 00 00 7f 0d 00 00 db 05 00 1b 00 f5 26
       -72 0 0 0 0 127 13 0 0 -37 5 0 27 0 -11 38
0000d0 03 ea 33 d6 00 00 00 1b 00 4b 00 00 00 00 00 fe
       3 -22 51 -42 0 0 0 27 0 75 0 0 0 0 0 -2
0000e0 00 00 14 1e 00 d7 2a 00 00 1b 00 ec 00 dc 39 19
       0 0 20 30 0 -41 42 0 0 27 0 -20 0 -36 57 25
0000f0 00 00 00 ac e5 d4 ea 00 00 00 00 00 f9 fd dc 00
       0 0 0 -84 -27 -44 -22 0 0 0 0 0 -7 -3 -36 0

convolution_14 i1 [192, 1, 1, 32]
000000 00 00 00 00 00 00 00 00 00 00 00 00 00 00 00 00
       0 0 0 0 0 0 0 0 0 0 0 0 0 0 0 0
000010 00 00 00 00 00 00 00 00 00 00 00 00 00 00 00 00
       0 0 0 0 0 0 0 0 0 0 0 0 0 0 0 0
000020 00 00 00 00 00 00 00 00 00 00 00 00 00 00 00 00
       0 0 0 0 0 0 0 0 0 0 0 0 0 0 0 0
000030 00 00 00 00 00 00 00 00 00 00 00 00 00 00 00 00
       0 0 0 0 0 0 0 0 0 0 0 0 0 0 0 0
000040 00 00 00 00 00 00 00 00 00 00 00 00 00 00 00 00
       0 0 0 0 0 0 0 0 0 0 0 0 0 0 0 0
000050 00 00 00 00 00 00 00 00 00 00 00 00 00 00 00 00
       0 0 0 0 0 0 0 0 0 0 0 0 0 0 0 0
000060 00 00 00 00 00 00 00 00 00 00 00 00 00 00 00 00
       0 0 0 0 0 0 0 0 0 0 0 0 0 0 0 0
000070 00 00 00 00 00 00 00 00 00 00 00 00 00 00 00 00
       0 0 0 0 0 0 0 0 0 0 0 0 0 0 0 0
000080 00 fe 01 00 00 00 ff 01 fe 01 ff fe 01 ff 02 00
       0 -2 1 0 0 0 -1 1 -2 1 -1 -2 1 -1 2 0
000090 ff 01 ff 01 02 ff ff 01 01 01 00 02 01 ff 00 01
       -1 1 -1 1 2 -1 -1 1 1 1 0 2 1 -1 0 1
0000a0 ff 01 00 ff ff 00 ff 01 02 00 00 00 01 ff 00 ff
       -1 1 0 -1 -1 0 -1 1 2 0 0 0 1 -1 0 -1
0000b0 01 00 01 ff 00 01 01 00 ff 00 ff 00 01 00 01 fc
       1 0 1 -1 0 1 1 0 -1 0 -1 0 1 0 1 -4
0000c0 e8 d2 c7 cf 04 e9 d8 7f 36 00 cf 32 f4 e9 cd 1f
       -24 -46 -57 -49 4 -23 -40 127 54 0 -49 50 -12 -23 -51 31
0000d0 22 31 05 be e1 db e0 3f af 1a e2 12 cb 4b 1a fc
       34 49 5 -66 -31 -37 -32 63 -81 26 -30 18 -53 75 26 -4
0000e0 00 00 00 00 00 00 00 00 00 00 00 00 00 00 00 00
       0 0 0 0 0 0 0 0 0 0 0 0 0 0 0 0
0000f0 00 00 00 00 00 00 00 00 00 00 00 00 00 00 00 00
       0 0 0 0 0 0 0 0 0 0 0 0 0 0 0 0

depthwise_7 i1 [1, 3, 3, 192]
000000 00 00 00 00 fb 0a 02 00 00 00 00 2e 35 00 00 09
       0 0 0 0 -5 10 2 0 0 0 0 46 53 0 0 9
000010 00 ff 00 d0 2a ea 00 00 00 00 07 c3 00 63 00 00
       0 -1 0 -48 42 -22 0 0 0 0 7 -61 0 99 0 0
000020 0c 00 00 00 8b 00 da 00 00 00 00 00 9f 5b 00 54
       12 0 0 0 -117 0 -38 0 0 0 0 0 -97 91 0 84
000030 00 37 a3 00 f1 13 10 62 00 00 00 ce 03 00 00 00
       0 55 -93 0 -15 19 16 98 0 0 0 -50 3 0 0 0
000040 00 00 00 ff 00 fe 00 00 f3 00 00 07 c4 00 00 00
       0 0 0 -1 0 -2 0 0 -13 0 0 7 -60 0 0 0
000050 64 73 00 7f e1 00 00 00 00 00 00 42 00 ef f8 00
       100 115 0 127 -31 0 0 0 0 0 0 66 0 -17 -8 0
000060 2e 00 00 1f 01 18 00 00 ad 00 a3 fd 00 00 34 00
       46 0 0 31 1 24 0 0 -83 0 -93 -3 0 0 52 0
000070 be 00 00 00 00 00 f0 00 31 00 00 00 00 b7 00 c4
       -66 0 0 0 0 0 -16 0 49 0 0 0 0 -73 0 -60
000080 00 3b 00 00 00 00 ff dc 01 01 00 00 94 00 00 05
       0 59 0 0 0 0 -1 -36 1 1 0 0 -108 0 0 5
000090 10 1d 00 fe 18 00 49 00 00 00 b3 a9 97 ef 0a c0
       16 29 0 -2 24 0 73 0 0 0 -77 -87 -105 -17 10 -64
0000a0 00 e0 26 4b 00 00 c3 81 d1 46 99 59 00 00 00 e3
       0 -32 38 75 0 0 -61 -127 -47 70 -103 89 0 0 0 -29
0000b0 b9 00 01 0c 00 00 ae f6 00 05 00 00 00 b5 00 f3
       -71 0 1 12 0 0 -82 -10 0 5 0 0 0 -75 0 -13
0000c0 00 00 00 00 01 fc 7f 00 00 00 00 1d a1 00 00 d0
       0 0 0 0 1 -4 127 0 0 0 0 29 -95 0 0 -48
0000d0 00 fe 00 b7 d9 7f 00 00 00 00 93 23 00 cd 00 00
       0 -2 0 -73 -39 127 0 0 0 0 -109 35 0 -51 0 0
0000e0 d3 00 00 00 f6 00 a9 00 00 00 00 00 be ed 00 04
       -45 0 0 0 -10 0 -87 0 0 0 0 0 -66 -19 0 4
0000f0 00 da ae 00 7f 2e 1f ce 00 00 00 7f 81 00 00 00
       0 -38 -82 0 127 46 31 -50 0 0 0 127 -127 0 0 0

convolution_15 i1 [32, 1, 1, 192]
000000 00 00 00 00 00 00 5c 00 00 00 00 00 06 00 00 00
       0 0 0 0 0 0 92 0 0 0 0 0 6 0 0 0
000010 00 00 00 3b 00 e0 00 00 00 00 f0 c7 00 7f 00 00
       0 0 0 59 0 -32 0 0 0 0 -16 -57 0 127 0 0
000020 0c 00 00 00 e5 00 09 00 00 00 00 00 08 63 00 d1
       12 0 0 0 -27 0 9 0 0 0 0 0 8 99 0 -47
000030 00 00 00 00 e2 00 00 fa 00 00 00 01 00 00 00 00
       0 0 0 0 -30 0 0 -6 0 0 0 1 0 0 0 0
000040 00 00 00 00 00 00 00 00 00 00 00 00 07 00 00 00
       0 0 0 0 0 0 0 0 0 0 0 0 7 0 0 0
000050 67 e0 00 36 f0 00 00 00 00 00 00 13 00 00 00 00
       103 -32 0 54 -16 0 0 0 0 0 0 19 0 0 0 0
000060 03 00 00 0e 00 0e 00 00 02 00 01 00 00 00 f4 00
       3 0 0 14 0 14 0 0 2 0 1 0 0 0 -12 0
000070 21 00 00 00 00 00 fe 00 19 00 00 00 00 01 00 09
       33 0 0 0 0 0 -2 0 25 0 0 0 0 1 0 9
000080 00 00 00 00 00 00 00 22 00 00 00 00 f8 00 00 58
       0 0 0 0 0 0 0 34 0 0 0 0 -8 0 0 88
000090 00 45 00 d8 2a 00 23 00 00 00 fb 6d 1a 00 3e 61
       0 69 0 -40 42 0 35 0 0 0 -5 109 26 0 62 97
0000a0 00 02 00 a0 00 00 ef 2f c4 00 00 cf 00 00 00 20
       0 2 0 -96 0 0 -17 47 -60 0 0 -49 0 0 0 32
0000b0 0e 00 00 00 00 00 01 79 00 00 00 00 00 0d 00 00
       14 0 0 0 0 0 1 121 0 0 0 0 0 13 0 0
0000c0 00 00 00 00 00 00 1d 00 00 00 00 00 2e 00 00 00
       0 0 0 0 0 0 29 0 0 0 0 0 46 0 0 0
0000d0 00 00 00 fa 00 e8 00 00 00 00 a5 57 00 15 00 00
       0 0 0 -6 0 -24 0 0 0 0 -91 87 0 21 0 0
0000e0 05 00 00 00 29 00 ec 00 00 00 00 00 4d 9d 00 a9
       5 0 0 0 41 0 -20 0 0 0 0 0 77 -99 0 -87
0000f0 00 08 00 00 18 00 00 d9 00 00 00 00 00 00 00 00
       0 8 0 0 24 0 0 -39 0 0 0 0 0 0 0 0

convolution_16 i1 [192, 1, 1, 32]
000000 01 00 00 00 00 00 00 00 00 00 00 00 00 00 00 00
       1 0 0 0 0 0 0 0 0 0 0 0 0 0 0 0
000010 00 00 00 00 00 00 00 00 00 00 00 00 00 00 00 01
       0 0 0 0 0 0 0 0 0 0 0 0 0 0 0 1
000020 00 00 00 00 00 00 00 00 00 00 00 00 00 00 00 00
       0 0 0 0 0 0 0 0 0 0 0 0 0 0 0 0
000030 00 00 00 00 00 00 00 00 00 00 00 00 00 00 00 00
       0 0 0 0 0 0 0 0 0 0 0 0 0 0 0 0
000040 10 11 f8 20 61 00 ed 04 37 d9 c3 81 af 0a fe f6
       16 17 -8 32 97 0 -19 4 55 -39 -61 -127 -81 10 -2 -10
000050 ff ed 05 0d c4 c9 e8 30 ae 3e 24 0d cd e8 5e d5
       -1 -19 5 13 -60 -55 -24 48 -82 62 36 13 -51 -24 94 -43
000060 00 00 00 00 00 00 00 00 00 00 00 00 00 00 00 00
       0 0 0 0 0 0 0 0 0 0 0 0 0 0 0 0
000070 00 00 00 00 00 00 00 00 00 00 00 00 00 00 00 00
       0 0 0 0 0 0 0 0 0 0 0 0 0 0 0 0
000080 00 00 00 00 00 00 00 00 00 00 00 00 00 00 00 00
       0 0 0 0 0 0 0 0 0 0 0 0 0 0 0 0
000090 00 00 00 00 00 00 00 00 00 00 00 00 00 00 00 00
       0 0 0 0 0 0 0 0 0 0 0 0 0 0 0 0
0000a0 d4 f4 2d 11 1c 66 b1 d2 d2 03 08 26 04 f9 bd f4
       -44 -12 45 17 28 102 -79 -46 -46 3 8 38 4 -7 -67 -12
0000b0 d3 2a db 3f f5 e2 7f f5 ed fa f6 fe f2 f5 e0 f9
       -45 42 -37 63 -11 -30 127 -11 -19 -6 -10 -2 -14 -11 -32 -7
0000c0 01 00 ff 00 01 ff ff ff 00 00 00 00 00 00 ff 00
       1 0 -1 0 1 -1 -1 -1 0 0 0 0 0 0 -1 0
0000d0 00 00 01 ff 00 01 01 ff ff 01 00 00 ff 00 01 ff
       0 0 1 -1 0 1 1 -1 -1 1 0 0 -1 0 1 -1
0000e0 00 00 00 00 00 00 00 00 00 00 00 00 00 00 00 00
       0 0 0 0 0 0 0 0 0 0 0 0 0 0 0 0
0000f0 00 00 00 00 00 00 00 00 00 00 00 00 00 00 00 00
       0 0 0 0 0 0 0 0 0 0 0 0 0 0 0 0

depthwise_8 i1 [1, 3, 3, 192]
000000 ff 00 d7 00 00 7f fe 01 00 f0 00 00 be 00 07 00
       -1 0 -41 0 0 127 -2 1 0 -16 0 0 -66 0 7 0
000010 00 00 00 00 00 11 16 03 02 00 00 f9 00 00 00 31
       0 0 0 0 0 17 22 3 2 0 0 -7 0 0 0 49
000020 00 00 d5 e2 1b 00 00 00 9d 00 00 00 00 00 d9 00
       0 0 -43 -30 27 0 0 0 -99 0 0 0 0 0 -39 0
000030 00 00 36 23 00 00 fc 00 0b 1d 00 00 00 00 ff 00
       0 0 54 35 0 0 -4 0 11 29 0 0 0 0 -1 0
000040 00 00 e3 39 00 76 00 fa 00 00 ae fe 66 65 d1 00
       0 0 -29 57 0 118 0 -6 0 0 -82 -2 102 101 -47 0
000050 00 ff 01 00 16 00 93 00 00 3f 5c fa 00 00 00 00
       0 -1 1 0 22 0 -109 0 0 63 92 -6 0 0 0 0
000060 00 00 69 48 fa fe 00 00 00 fd 00 00 00 00 fb 5a
       0 0 105 72 -6 -2 0 0 0 -3 0 0 0 0 -5 90
000070 2b 00 01 0a 00 22 00 00 ab 05 00 00 00 00 00 00
       43 0 1 10 0 34 0 0 -85 5 0 0 0 0 0 0
000080 d2 00 22 00 00 00 00 e2 00 14 00 00 67 00 e8 f0
       -46 0 34 0 0 0 0 -30 0 20 0 0 103 0 -24 -16
000090 cd 00 68 00 6a 00 00 52 f5 00 b9 00 00 3d 00 ff
       -51 0 104 0 106 0 0 82 -11 0 -71 0 0 61 0 -1
0000a0 0d fe 02 00 7f 5f 00 1c 00 00 00 00 00 9d 00 00
       13 -2 2 0 127 95 0 28 0 0 0 0 0 -99 0 0
0000b0 00 00 7a 00 00 d3 00 fd 0f fb 01 6c 09 00 00 00
       0 0 122 0 0 -45 0 -3 15 -5 1 108 9 0 0 0
0000c0 00 00 12 00 00 3b 04 01 00 81 00 00 b6 00 0f 00
       0 0 18 0 0 59 4 1 0 -127 0 0 -74 0 15 0
0000d0 00 00 00 00 00 fc 7f 00 01 00 00 7f 00 00 00 7f
       0 0 0 0 0 -4 127 0 1 0 0 127 0 0 0 127
0000e0 00 ff c1 b7 52 00 00 00 c0 00 00 00 00 00 e1 00
       0 -1 -63 -73 82 0 0 0 -64 0 0 0 0 0 -31 0
0000f0 ff 00 c9 7f 00 00 09 00 7f a0 00 00 00 00 ff 00
       -1 0 -55 127 0 0 9 0 127 -96 0 0 0 0 -1 0

convolution_17 i1 [32, 1, 1, 192]
000000 00 00 f4 00 00 17 00 00 00 00 00 00 f7 00 00 00
       0 0 -12 0 0 23 0 0 0 0 0 0 -9 0 0 0
000010 00 00 00 00 00 00 0c 00 00 00 00 01 00 00 00 38
       0 0 0 0 0 0 12 0 0 0 0 1 0 0 0 56
000020 00 00 01 04 ea 00 00 00 00 00 00 00 00 00 00 00
       0 0 1 4 -22 0 0 0 0 0 0 0 0 0 0 0
000030 00 00 15 28 00 00 00 00 45 10 00 00 00 00 00 00
       0 0 21 40 0 0 0 0 69 16 0 0 0 0 0 0
000040 00 00 df 4e 00 44 00 00 00 00 da fa 0f 00 00 00
       0 0 -33 78 0 68 0 0 0 0 -38 -6 15 0 0 0
000050 00 00 00 00 d1 00 19 00 00 01 02 00 00 00 00 00
       0 0 0 0 -47 0 25 0 0 1 2 0 0 0 0 0
000060 00 00 24 bf 00 00 00 00 00 00 00 00 00 00 00 e6
       0 0 36 -65 0 0 0 0 0 0 0 0 0 0 0 -26
000070 40 00 45 ff 00 cb fd 00 08 00 00 00 00 00 00 00
       64 0 69 -1 0 -53 -3 0 8 0 0 0 0 0 0 0
000080 5c 00 fa 00 00 00 00 81 00 47 00 00 00 00 d2 00
       92 0 -6 0 0 0 0 -127 0 71 0 0 0 0 -46 0
000090 00 00 00 00 d9 00 00 01 00 00 0a 00 00 00 00 00
       0 0 0 0 -39 0 0 1 0 0 10 0 0 0 0 0
0000a0 01 00 00 00 00 cd 00 00 00 00 00 00 00 f9 00 00
       1 0 0 0 0 -51 0 0 0 0 0 0 0 -7 0 0
0000b0 00 00 37 00 00 ee 00 00 00 f2 00 07 00 00 00 00
       0 0 55 0 0 -18 0 0 0 -14 0 7 0 0 0 0
0000c0 00 00 04 00 00 05 00 00 00 ff 00 00 f6 00 00 00
       0 0 4 0 0 5 0 0 0 -1 0 0 -10 0 0 0
0000d0 00 00 00 00 00 00 fe 00 00 00 00 00 00 00 00 d9
       0 0 0 0 0 0 -2 0 0 0 0 0 0 0 0 -39
0000e0 00 00 0e fa 05 00 00 00 01 00 00 00 00 00 00 00
       0 0 14 -6 5 0 0 0 1 0 0 0 0 0 0 0
0000f0 00 00 ca 12 00 00 00 00 32 d2 00 00 00 00 00 00
       0 0 -54 18 0 0 0 0 50 -46 0 0 0 0 0 0

convolution_18 i1 [192, 1, 1, 32]
000000 02 0d f3 01 e5 12 ec 44 17 24 28 0c 02 ed 02 d9
       2 13 -13 1 -27 18 -20 68 23 36 40 12 2 -19 2 -39
000010 0a 11 fd de 09 1b bc ed 00 23 26 00 d7 ea 81 22
       10 17 -3 -34 9 27 -68 -19 0 35 38 0 -41 -22 -127 34
000020 00 00 00 00 00 00 00 00 00 00 00 00 00 00 00 00
       0 0 0 0 0 0 0 0 0 0 0 0 0 0 0 0
000030 00 00 00 00 00 00 00 00 00 00 00 00 00 00 00 00
       0 0 0 0 0 0 0 0 0 0 0 0 0 0 0 0
000040 00 00 00 00 00 00 00 00 00 00 00 00 00 00 00 00
       0 0 0 0 0 0 0 0 0 0 0 0 0 0 0 0
000050 00 00 00 00 00 00 00 00 00 00 00 00 00 00 00 00
       0 0 0 0 0 0 0 0 0 0 0 0 0 0 0 0
000060 00 00 00 00 00 00 00 00 00 00 00 00 00 00 00 00
       0 0 0 0 0 0 0 0 0 0 0 0 0 0 0 0
000070 00 00 00 00 00 00 00 00 00 00 00 00 00 00 00 00
       0 0 0 0 0 0 0 0 0 0 0 0 0 0 0 0
000080 00 00 00 00 00 00 00 00 00 00 00 00 00 00 00 00
       0 0 0 0 0 0 0 0 0 0 0 0 0 0 0 0
000090 00 00 00 00 00 00 00 00 00 00 00 00 00 00 00 00
       0 0 0 0 0 0 0 0 0 0 0 0 0 0 0 0
0000a0 17 f8 03 d9 ef ea e0 16 10 0b 01 f9 34 d2 f1 0e
       23 -8 3 -39 -17 -22 -32 22 16 11 1 -7 52 -46 -15 14
0000b0 10 fc 17 cd f7 fb ac e0 0f 00 f0 00 05 0f fa db
       16 -4 23 -51 -9 -5 -84 -32 15 0 -16 0 5 15 -6 -37
0000c0 00 00 00 00 00 00 00 00 00 00 00 00 00 00 00 00
       0 0 0 0 0 0 0 0 0 0 0 0 0 0 0 0
0000d0 00 00 00 00 00 00 00 00 00 00 00 00 00 00 00 00
       0 0 0 0 0 0 0 0 0 0 0 0 0 0 0 0
0000e0 00 00 00 00 00 00 00 00 00 00 00 00 00 00 00 00
       0 0 0 0 0 0 0 0 0 0 0 0 0 0 0 0
0000f0 00 00 00 00 00 00 00 00 00 00 00 00 00 00 00 00
       0 0 0 0 0 0 0 0 0 0 0 0 0 0 0 0

depthwise_9 i1 [1, 3, 3, 192]
000000 e6 00 00 00 00 40 00 00 ef fa 00 00 01 00 01 00
       -26 0 0 0 0 64 0 0 -17 -6 0 0 1 0 1 0
000010 00 db 00 b8 00 00 04 fa 00 c6 9f f9 da ad 00 00
       0 -37 0 -72 0 0 4 -6 0 -58 -97 -7 -38 -83 0 0
000020 00 00 00 ae 00 4c ce 00 ee ff 00 00 13 00 99 00
       0 0 0 -82 0 76 -50 0 -18 -1 0 0 19 0 -103 0
000030 00 a8 00 00 00 00 00 00 00 00 00 05 bb 56 00 fb
       0 -88 0 0 0 0 0 0 0 0 0 5 -69 86 0 -5
000040 00 00 00 00 30 00 9c 01 00 00 00 00 00 02 05 00
       0 0 0 0 48 0 -100 1 0 0 0 0 0 2 5 0
000050 00 f1 44 00 00 00 28 00 00 00 ff 00 00 00 00 00
       0 -15 68 0 0 0 40 0 0 0 -1 0 0 0 0 0
000060 2a 00 8e 1d c8 00 00 00 f0 1a 00 00 6e f1 04 00
       42 0 -114 29 -56 0 0 0 -16 26 0 0 110 -15 4 0
000070 00 00 00 00 00 00 00 6b 00 7f 09 d3 00 00 05 c1
       0 0 0 0 0 0 0 107 0 127 9 -45 0 0 5 -63
000080 00 75 db bf de 00 4e 00 db 62 00 00 00 d4 00 00
       0 117 -37 -65 -34 0 78 0 -37 98 0 0 0 -44 0 0
000090 00 fa d5 00 00 00 ff 00 00 00 4a 00 00 bf 00 00
       0 -6 -43 0 0 0 -1 0 0 0 74 0 0 -65 0 0
0000a0 00 00 00 f8 00 00 00 00 00 00 00 00 00 00 ff 00
       0 0 0 -8 0 0 0 0 0 0 0 0 0 0 -1 0
0000b0 00 00 00 e5 00 fe 00 fe 00 8e c7 00 00 00 45 18
       0 0 0 -27 0 -2 0 -2 0 -114 -57 0 0 0 69 24
0000c0 b9 00 00 00 00 b6 00 00 ed fa 00 00 02 00 00 00
       -71 0 0 0 0 -74 0 0 -19 -6 0 0 2 0 0 0
0000d0 00 2c 00 87 00 00 02 f7 00 7f 5b a9 af 21 00 00
       0 44 0 -121 0 0 2 -9 0 127 91 -87 -81 33 0 0
0000e0 00 00 00 bc 00 09 0a 00 0c 0e 00 00 0e 00 b8 00
       0 0 0 -68 0 9 10 0 12 14 0 0 14 0 -72 0
0000f0 00 f8 00 00 00 00 00 00 00 00 06 04 0e 2c 00 00
       0 -8 0 0 0 0 0 0 0 0 6 4 14 44 0 0

convolution_19 i1 [32, 1, 1, 192]
000000 1c 00 00 00 00 00 00 00 00 00 00 00 00 00 00 00
       28 0 0 0 0 0 0 0 0 0 0 0 0 0 0 0
000010 00 00 00 14 00 00 00 00 00 09 02 00 1c ee 00 00
       0 0 0 20 0 0 0 0 0 9 2 0 28 -18 0 0
000020 00 00 00 00 00 13 00 00 01 00 00 00 00 00 f5 00
       0 0 0 0 0 19 0 0 1 0 0 0 0 0 -11 0
000030 00 4a 00 00 00 00 00 00 00 00 00 00 2d f2 00 00
       0 74 0 0 0 0 0 0 0 0 0 0 45 -14 0 0
000040 00 00 00 00 00 00 00 41 00 00 00 00 00 00 00 00
       0 0 0 0 0 0 0 65 0 0 0 0 0 0 0 0
000050 00 01 c9 00 00 00 00 00 00 00 00 00 00 00 00 00
       0 1 -55 0 0 0 0 0 0 0 0 0 0 0 0 0
000060 ff 00 00 00 00 00 00 00 08 00 00 00 da a7 00 00
       -1 0 0 0 0 0 0 0 8 0 0 0 -38 -89 0 0
000070 00 00 00 00 00 00 00 02 00 46 00 54 00 00 00 1f
       0 0 0 0 0 0 0 2 0 70 0 84 0 0 0 31
000080 00 fe 01 f9 00 00 01 00 00 01 00 00 00 20 00 00
       0 -2 1 -7 0 0 1 0 0 1 0 0 0 32 0 0
000090 00 ff d5 00 00 00 00 00 00 00 00 00 00 e9 00 00
       0 -1 -43 0 0 0 0 0 0 0 0 0 0 -23 0 0
0000a0 00 00 00 00 00 00 00 00 00 00 00 00 00 00 00 00
       0 0 0 0 0 0 0 0 0 0 0 0 0 0 0 0
0000b0 00 00 00 26 00 00 00 00 00 5e 00 00 00 00 7f 00
       0 0 0 38 0 0 0 0 0 94 0 0 0 0 127 0
0000c0 29 00 00 00 00 00 00 00 00 00 00 00 00 00 00 00
       41 0 0 0 0 0 0 0 0 0 0 0 0 0 0 0
0000d0 00 00 00 37 00 00 00 00 00 f6 ed 00 c9 05 00 00
       0 0 0 55 0 0 0 0 0 -10 -19 0 -55 5 0 0
0000e0 00 00 00 00 00 33 00 00 02 00 00 00 00 00 35 00
       0 0 0 0 0 51 0 0 2 0 0 0 0 0 53 0
0000f0 00 0c 00 00 00 00 00 00 00 00 00 00 60 d0 00 00
       0 12 0 0 0 0 0 0 0 0 0 0 96 -48 0 0

convolution_20 i1 [192, 1, 1, 32]
000000 b8 d2 f6 2f e0 15 be fb d1 99 fa 1e 4c f0 08 81
       -72 -46 -10 47 -32 21 -66 -5 -47 -103 -6 30 76 -16 8 -127
000010 04 a6 cb e2 d5 35 ee f8 2d d5 e4 2c 31 29 c3 c2
       4 -90 -53 -30 -43 53 -18 -8 45 -43 -28 44 49 41 -61 -62
000020 3b 16 3d 4b 2e 30 63 e3 2c 03 f5 aa ec 25 2a 81
       59 22 61 75 46 48 99 -29 44 3 -11 -86 -20 37 42 -127
000030 25 c7 b4 ad c7 25 16 ef f7 02 12 b6 e0 0e 13 11
       37 -57 -76 -83 -57 37 22 -17 -9 2 18 -74 -32 14 19 17
000040 05 13 f9 ef f5 0d 00 00 09 0e f3 f1 0a ea ff 0a
       5 19 -7 -17 -11 13 0 0 9 14 -13 -15 10 -22 -1 10
000050 f4 0c 11 06 ec 04 03 07 0a 03 03 f2 eb f8 03 f9
       -12 12 17 6 -20 4 3 7 10 3 3 -14 -21 -8 3 -7
000060 00 00 00 00 00 00 00 00 00 00 00 00 00 00 00 00
       0 0 0 0 0 0 0 0 0 0 0 0 0 0 0 0
000070 00 00 00 00 00 00 00 00 00 00 00 00 00 00 00 00
       0 0 0 0 0 0 0 0 0 0 0 0 0 0 0 0
000080 29 28 08 a9 03 18 05 e5 29 20 c9 16 eb dd b1 64
       41 40 8 -87 3 24 5 -27 41 32 -55 22 -21 -35 -79 100
000090 16 0a 18 f7 fb 12 0d 09 dc 3a 3a 5c 09 dc 2a 81
       22 10 24 -9 -5 18 13 9 -36 58 58 92 9 -36 42 -127
0000a0 d6 25 fe 05 02 dc b8 2b 10 30 ee f3 ef fe 31 17
       -42 37 -2 5 2 -36 -72 43 16 48 -18 -13 -17 -2 49 23
0000b0 81 4b ea 30 31 d1 11 25 ff f7 c7 0d 22 d0 d8 19
       -127 75 -22 48 49 -47 17 37 -1 -9 -57 13 34 -48 -40 25
0000c0 00 00 00 00 00 00 00 00 00 00 00 00 00 00 00 00
       0 0 0 0 0 0 0 0 0 0 0 0 0 0 0 0
0000d0 00 00 00 00 00 00 00 00 00 00 00 00 00 00 00 00
       0 0 0 0 0 0 0 0 0 0 0 0 0 0 0 0
0000e0 00 00 00 00 00 00 00 00 00 00 00 00 00 00 00 00
       0 0 0 0 0 0 0 0 0 0 0 0 0 0 0 0
0000f0 00 00 00 00 00 00 00 00 00 00 00 00 00 00 00 00
       0 0 0 0 0 0 0 0 0 0 0 0 0 0 0 0

depthwise_10 i1 [1, 3, 3, 192]
000000 7f 1e 21 00 f1 08 00 00 7f 4a c1 54 01 00 00 6c
       127 30 33 0 -15 8 0 0 127 74 -63 84 1 0 0 108
000010 c6 47 e2 00 1e 41 00 00 06 da 8f 00 00 43 00 f6
       -58 71 -30 0 30 65 0 0 6 -38 -113 0 0 67 0 -10
000020 a3 9e 00 00 00 00 00 c1 00 00 00 b8 97 00 00 23
       -93 -98 0 0 0 0 0 -63 0 0 0 -72 -105 0 0 35
000030 d3 f9 b6 e9 44 4e 00 19 00 33 d3 00 00 ff d4 7f
       -45 -7 -74 -23 68 78 0 25 0 51 -45 0 0 -1 -44 127
000040 b9 cc 00 00 bf 00 fc 04 a2 00 00 00 00 83 00 00
       -71 -52 0 0 -65 0 -4 4 -94 0 0 0 0 -125 0 0
000050 00 00 f6 0d 5e 00 41 ec f8 cd e2 00 d9 00 00 0b
       0 0 -10 13 94 0 65 -20 -8 -51 -30 0 -39 0 0 11
000060 4b 00 fe d5 f8 00 00 7f c6 00 b4 eb 00 c1 00 00
       75 0 -2 -43 -8 0 0 127 -58 0 -76 -21 0 -63 0 0
000070 00 c2 f0 bf 7f f0 7f 00 c2 f3 41 00 d6 00 e0 0a
       0 -62 -16 -65 127 -16 127 0 -62 -13 65 0 -42 0 -32 10
000080 cd 00 2c 00 16 66 00 00 dc a8 f6 04 02 f2 46 00
       -51 0 44 0 22 102 0 0 -36 -88 -10 4 2 -14 70 0
000090 00 00 00 f0 d9 4a 00 00 7f 22 30 69 00 de e4 b2
       0 0 0 -16 -39 74 0 0 127 34 48 105 0 -34 -28 -78
0000a0 c0 fd 00 00 35 72 00 00 00 28 00 00 00 00 81 25
       -64 -3 0 0 53 114 0 0 0 40 0 0 0 0 -127 37
0000b0 00 00 00 00 01 43 00 00 00 d6 ff d2 00 7f fe 00
       0 0 0 0 1 67 0 0 0 -42 -1 -46 0 127 -2 0
0000c0 5a fd fc 00 f9 f6 00 00 fe 7f 9f d5 01 00 00 28
       90 -3 -4 0 -7 -10 0 0 -2 127 -97 -43 1 0 0 40
0000d0 e0 da c8 ff e2 7f 00 00 5e e7 9f 00 00 7f 00 f1
       -32 -38 -56 -1 -30 127 0 0 94 -25 -97 0 0 127 0 -15
0000e0 af 13 00 00 00 00 00 f8 00 00 00 ba dc 00 00 12
       -81 19 0 0 0 0 0 -8 0 0 0 -70 -36 0 0 18
0000f0 d6 c3 da e7 26 68 00 29 00 7f 45 00 01 00 d7 2a
       -42 -61 -38 -25 38 104 0 41 0 127 69 0 1 0 -41 42
